{
  "nodes": [
    {
      "op": "null", 
      "name": "_mask", 
      "attrs": {
        "__init__": "[\"constant\", {\"value\": [[… ", 
        "__shape__": "(180, 180)"
      }, 
      "inputs": []
    }, 
    {
      "op": "null", 
      "name": "adj", 
      "attrs": {
        "__init__": "[\"constant\", {\"value\": [[… ", 
        "__shape__": "(180, 180)"
      }, 
      "inputs": []
    }, 
    {
      "op": "BlockGrad", 
      "name": "blockgrad0", 
      "inputs": [[1, 0, 0]]
    }, 
    {
      "op": "elemwise_mul", 
      "name": "_mul0", 
      "inputs": [[0, 0, 0], [2, 0, 0]]
    }, 
    {
      "op": "null", 
      "name": "data", 
      "inputs": []
    }, 
    {
      "op": "null", 
      "name": "fullyconnected0_weight", 
      "attrs": {
        "flatten": "False", 
        "num_hidden": "32"
      }, 
      "inputs": []
    }, 
    {
      "op": "null", 
      "name": "fullyconnected0_bias", 
      "attrs": {
        "flatten": "False", 
        "num_hidden": "32"
      }, 
      "inputs": []
    }, 
    {
      "op": "FullyConnected", 
      "name": "fullyconnected0", 
      "attrs": {
        "flatten": "False", 
        "num_hidden": "32"
      }, 
      "inputs": [[4, 0, 0], [5, 0, 0], [6, 0, 0]]
    }, 
    {
      "op": "Activation", 
      "name": "activation0", 
      "attrs": {"act_type": "relu"}, 
      "inputs": [[7, 0, 0]]
    }, 
    {
      "op": "null", 
      "name": "_stsgcl_0_emb_t_emb", 
      "attrs": {
        "__init__": "[\"xavier\", {\"rnd_type\": \"uniform\", \"factor_type\": \"avg\", \"magnitude\": 0.0003}]", 
        "__shape__": "(1, 24, 1, 32)"
      }, 
      "inputs": []
    }, 
    {
      "op": "broadcast_add", 
      "name": "broadcast_add0", 
      "inputs": [[8, 0, 0], [9, 0, 0]]
    }, 
    {
      "op": "null", 
      "name": "_stsgcl_0_emb_v_emb", 
      "attrs": {
        "__init__": "[\"xavier\", {\"rnd_type\": \"uniform\", \"factor_type\": \"avg\", \"magnitude\": 0.0003}]", 
        "__shape__": "(1, 1, 45, 32)"
      }, 
      "inputs": []
    }, 
    {
      "op": "broadcast_add", 
      "name": "broadcast_add1", 
      "inputs": [[10, 0, 0], [11, 0, 0]]
    }, 
    {
      "op": "slice", 
      "name": "slice0", 
      "attrs": {
        "begin": "(None, 0, None, None)", 
        "end": "(None, 4, None, None)"
      }, 
      "inputs": [[12, 0, 0]]
    }, 
    {
      "op": "Reshape", 
      "name": "reshape0", 
      "attrs": {"shape": "(-1, 180, 32)"}, 
      "inputs": [[13, 0, 0]]
    }, 
    {
      "op": "transpose", 
      "name": "transpose2", 
      "attrs": {"axes": "(1, 0, 2)"}, 
      "inputs": [[14, 0, 0]]
    }, 
    {
      "op": "dot", 
      "name": "dot0", 
      "inputs": [[3, 0, 0], [15, 0, 0]]
    }, 
    {
      "op": "null", 
      "name": "fullyconnected1_weight", 
      "attrs": {
        "flatten": "False", 
        "num_hidden": "32"
      }, 
      "inputs": []
    }, 
    {
      "op": "null", 
      "name": "fullyconnected1_bias", 
      "attrs": {
        "flatten": "False", 
        "num_hidden": "32"
      }, 
      "inputs": []
    }, 
    {
      "op": "FullyConnected", 
      "name": "fullyconnected1", 
      "attrs": {
        "flatten": "False", 
        "num_hidden": "32"
      }, 
      "inputs": [[16, 0, 0], [17, 0, 0], [18, 0, 0]]
    }, 
    {
      "op": "Activation", 
      "name": "activation1", 
      "attrs": {"act_type": "relu"}, 
      "inputs": [[19, 0, 0]]
    }, 
    {
      "op": "slice", 
      "name": "slice1", 
      "attrs": {
        "begin": "(45, None, None)", 
        "end": "(90, None, None)"
      }, 
      "inputs": [[20, 0, 0]]
    }, 
    {
      "op": "expand_dims", 
      "name": "expand_dims0", 
      "attrs": {"axis": "0"}, 
      "inputs": [[21, 0, 0]]
    }, 
    {
      "op": "dot", 
      "name": "dot1", 
      "inputs": [[3, 0, 0], [20, 0, 0]]
    }, 
    {
      "op": "null", 
      "name": "fullyconnected2_weight", 
      "attrs": {
        "flatten": "False", 
        "num_hidden": "32"
      }, 
      "inputs": []
    }, 
    {
      "op": "null", 
      "name": "fullyconnected2_bias", 
      "attrs": {
        "flatten": "False", 
        "num_hidden": "32"
      }, 
      "inputs": []
    }, 
    {
      "op": "FullyConnected", 
      "name": "fullyconnected2", 
      "attrs": {
        "flatten": "False", 
        "num_hidden": "32"
      }, 
      "inputs": [[23, 0, 0], [24, 0, 0], [25, 0, 0]]
    }, 
    {
      "op": "Activation", 
      "name": "activation2", 
      "attrs": {"act_type": "relu"}, 
      "inputs": [[26, 0, 0]]
    }, 
    {
      "op": "slice", 
      "name": "slice2", 
      "attrs": {
        "begin": "(45, None, None)", 
        "end": "(90, None, None)"
      }, 
      "inputs": [[27, 0, 0]]
    }, 
    {
      "op": "expand_dims", 
      "name": "expand_dims1", 
      "attrs": {"axis": "0"}, 
      "inputs": [[28, 0, 0]]
    }, 
    {
      "op": "dot", 
      "name": "dot2", 
      "inputs": [[3, 0, 0], [27, 0, 0]]
    }, 
    {
      "op": "null", 
      "name": "fullyconnected3_weight", 
      "attrs": {
        "flatten": "False", 
        "num_hidden": "32"
      }, 
      "inputs": []
    }, 
    {
      "op": "null", 
      "name": "fullyconnected3_bias", 
      "attrs": {
        "flatten": "False", 
        "num_hidden": "32"
      }, 
      "inputs": []
    }, 
    {
      "op": "FullyConnected", 
      "name": "fullyconnected3", 
      "attrs": {
        "flatten": "False", 
        "num_hidden": "32"
      }, 
      "inputs": [[30, 0, 0], [31, 0, 0], [32, 0, 0]]
    }, 
    {
      "op": "Activation", 
      "name": "activation3", 
      "attrs": {"act_type": "relu"}, 
      "inputs": [[33, 0, 0]]
    }, 
    {
      "op": "slice", 
      "name": "slice3", 
      "attrs": {
        "begin": "(45, None, None)", 
        "end": "(90, None, None)"
      }, 
      "inputs": [[34, 0, 0]]
    }, 
    {
      "op": "expand_dims", 
      "name": "expand_dims2", 
      "attrs": {"axis": "0"}, 
      "inputs": [[35, 0, 0]]
    }, 
    {
      "op": "Concat", 
      "name": "concat0", 
      "attrs": {
        "dim": "0", 
        "num_args": "3"
      }, 
      "inputs": [[22, 0, 0], [29, 0, 0], [36, 0, 0]]
    }, 
    {
      "op": "max", 
      "name": "max0", 
      "attrs": {"axis": "0"}, 
      "inputs": [[37, 0, 0]]
    }, 
    {
      "op": "SwapAxis", 
      "name": "swapaxes0", 
      "attrs": {
        "dim1": "0", 
        "dim2": "1"
      }, 
      "inputs": [[38, 0, 0]]
    }, 
    {
      "op": "expand_dims", 
      "name": "expand_dims3", 
      "attrs": {"axis": "1"}, 
      "inputs": [[39, 0, 0]]
    }, 
    {
      "op": "slice", 
      "name": "slice4", 
      "attrs": {
        "begin": "(None, 1, None, None)", 
        "end": "(None, 5, None, None)"
      }, 
      "inputs": [[12, 0, 0]]
    }, 
    {
      "op": "Reshape", 
      "name": "reshape1", 
      "attrs": {"shape": "(-1, 180, 32)"}, 
      "inputs": [[41, 0, 0]]
    }, 
    {
      "op": "transpose", 
      "name": "transpose3", 
      "attrs": {"axes": "(1, 0, 2)"}, 
      "inputs": [[42, 0, 0]]
    }, 
    {
      "op": "dot", 
      "name": "dot3", 
      "inputs": [[3, 0, 0], [43, 0, 0]]
    }, 
    {
      "op": "null", 
      "name": "fullyconnected4_weight", 
      "attrs": {
        "flatten": "False", 
        "num_hidden": "32"
      }, 
      "inputs": []
    }, 
    {
      "op": "null", 
      "name": "fullyconnected4_bias", 
      "attrs": {
        "flatten": "False", 
        "num_hidden": "32"
      }, 
      "inputs": []
    }, 
    {
      "op": "FullyConnected", 
      "name": "fullyconnected4", 
      "attrs": {
        "flatten": "False", 
        "num_hidden": "32"
      }, 
      "inputs": [[44, 0, 0], [45, 0, 0], [46, 0, 0]]
    }, 
    {
      "op": "Activation", 
      "name": "activation4", 
      "attrs": {"act_type": "relu"}, 
      "inputs": [[47, 0, 0]]
    }, 
    {
      "op": "slice", 
      "name": "slice5", 
      "attrs": {
        "begin": "(45, None, None)", 
        "end": "(90, None, None)"
      }, 
      "inputs": [[48, 0, 0]]
    }, 
    {
      "op": "expand_dims", 
      "name": "expand_dims4", 
      "attrs": {"axis": "0"}, 
      "inputs": [[49, 0, 0]]
    }, 
    {
      "op": "dot", 
      "name": "dot4", 
      "inputs": [[3, 0, 0], [48, 0, 0]]
    }, 
    {
      "op": "null", 
      "name": "fullyconnected5_weight", 
      "attrs": {
        "flatten": "False", 
        "num_hidden": "32"
      }, 
      "inputs": []
    }, 
    {
      "op": "null", 
      "name": "fullyconnected5_bias", 
      "attrs": {
        "flatten": "False", 
        "num_hidden": "32"
      }, 
      "inputs": []
    }, 
    {
      "op": "FullyConnected", 
      "name": "fullyconnected5", 
      "attrs": {
        "flatten": "False", 
        "num_hidden": "32"
      }, 
      "inputs": [[51, 0, 0], [52, 0, 0], [53, 0, 0]]
    }, 
    {
      "op": "Activation", 
      "name": "activation5", 
      "attrs": {"act_type": "relu"}, 
      "inputs": [[54, 0, 0]]
    }, 
    {
      "op": "slice", 
      "name": "slice6", 
      "attrs": {
        "begin": "(45, None, None)", 
        "end": "(90, None, None)"
      }, 
      "inputs": [[55, 0, 0]]
    }, 
    {
      "op": "expand_dims", 
      "name": "expand_dims5", 
      "attrs": {"axis": "0"}, 
      "inputs": [[56, 0, 0]]
    }, 
    {
      "op": "dot", 
      "name": "dot5", 
      "inputs": [[3, 0, 0], [55, 0, 0]]
    }, 
    {
      "op": "null", 
      "name": "fullyconnected6_weight", 
      "attrs": {
        "flatten": "False", 
        "num_hidden": "32"
      }, 
      "inputs": []
    }, 
    {
      "op": "null", 
      "name": "fullyconnected6_bias", 
      "attrs": {
        "flatten": "False", 
        "num_hidden": "32"
      }, 
      "inputs": []
    }, 
    {
      "op": "FullyConnected", 
      "name": "fullyconnected6", 
      "attrs": {
        "flatten": "False", 
        "num_hidden": "32"
      }, 
      "inputs": [[58, 0, 0], [59, 0, 0], [60, 0, 0]]
    }, 
    {
      "op": "Activation", 
      "name": "activation6", 
      "attrs": {"act_type": "relu"}, 
      "inputs": [[61, 0, 0]]
    }, 
    {
      "op": "slice", 
      "name": "slice7", 
      "attrs": {
        "begin": "(45, None, None)", 
        "end": "(90, None, None)"
      }, 
      "inputs": [[62, 0, 0]]
    }, 
    {
      "op": "expand_dims", 
      "name": "expand_dims6", 
      "attrs": {"axis": "0"}, 
      "inputs": [[63, 0, 0]]
    }, 
    {
      "op": "Concat", 
      "name": "concat1", 
      "attrs": {
        "dim": "0", 
        "num_args": "3"
      }, 
      "inputs": [[50, 0, 0], [57, 0, 0], [64, 0, 0]]
    }, 
    {
      "op": "max", 
      "name": "max1", 
      "attrs": {"axis": "0"}, 
      "inputs": [[65, 0, 0]]
    }, 
    {
      "op": "SwapAxis", 
      "name": "swapaxes1", 
      "attrs": {
        "dim1": "0", 
        "dim2": "1"
      }, 
      "inputs": [[66, 0, 0]]
    }, 
    {
      "op": "expand_dims", 
      "name": "expand_dims7", 
      "attrs": {"axis": "1"}, 
      "inputs": [[67, 0, 0]]
    }, 
    {
      "op": "slice", 
      "name": "slice8", 
      "attrs": {
        "begin": "(None, 2, None, None)", 
        "end": "(None, 6, None, None)"
      }, 
      "inputs": [[12, 0, 0]]
    }, 
    {
      "op": "Reshape", 
      "name": "reshape2", 
      "attrs": {"shape": "(-1, 180, 32)"}, 
      "inputs": [[69, 0, 0]]
    }, 
    {
      "op": "transpose", 
      "name": "transpose4", 
      "attrs": {"axes": "(1, 0, 2)"}, 
      "inputs": [[70, 0, 0]]
    }, 
    {
      "op": "dot", 
      "name": "dot6", 
      "inputs": [[3, 0, 0], [71, 0, 0]]
    }, 
    {
      "op": "null", 
      "name": "fullyconnected7_weight", 
      "attrs": {
        "flatten": "False", 
        "num_hidden": "32"
      }, 
      "inputs": []
    }, 
    {
      "op": "null", 
      "name": "fullyconnected7_bias", 
      "attrs": {
        "flatten": "False", 
        "num_hidden": "32"
      }, 
      "inputs": []
    }, 
    {
      "op": "FullyConnected", 
      "name": "fullyconnected7", 
      "attrs": {
        "flatten": "False", 
        "num_hidden": "32"
      }, 
      "inputs": [[72, 0, 0], [73, 0, 0], [74, 0, 0]]
    }, 
    {
      "op": "Activation", 
      "name": "activation7", 
      "attrs": {"act_type": "relu"}, 
      "inputs": [[75, 0, 0]]
    }, 
    {
      "op": "slice", 
      "name": "slice9", 
      "attrs": {
        "begin": "(45, None, None)", 
        "end": "(90, None, None)"
      }, 
      "inputs": [[76, 0, 0]]
    }, 
    {
      "op": "expand_dims", 
      "name": "expand_dims8", 
      "attrs": {"axis": "0"}, 
      "inputs": [[77, 0, 0]]
    }, 
    {
      "op": "dot", 
      "name": "dot7", 
      "inputs": [[3, 0, 0], [76, 0, 0]]
    }, 
    {
      "op": "null", 
      "name": "fullyconnected8_weight", 
      "attrs": {
        "flatten": "False", 
        "num_hidden": "32"
      }, 
      "inputs": []
    }, 
    {
      "op": "null", 
      "name": "fullyconnected8_bias", 
      "attrs": {
        "flatten": "False", 
        "num_hidden": "32"
      }, 
      "inputs": []
    }, 
    {
      "op": "FullyConnected", 
      "name": "fullyconnected8", 
      "attrs": {
        "flatten": "False", 
        "num_hidden": "32"
      }, 
      "inputs": [[79, 0, 0], [80, 0, 0], [81, 0, 0]]
    }, 
    {
      "op": "Activation", 
      "name": "activation8", 
      "attrs": {"act_type": "relu"}, 
      "inputs": [[82, 0, 0]]
    }, 
    {
      "op": "slice", 
      "name": "slice10", 
      "attrs": {
        "begin": "(45, None, None)", 
        "end": "(90, None, None)"
      }, 
      "inputs": [[83, 0, 0]]
    }, 
    {
      "op": "expand_dims", 
      "name": "expand_dims9", 
      "attrs": {"axis": "0"}, 
      "inputs": [[84, 0, 0]]
    }, 
    {
      "op": "dot", 
      "name": "dot8", 
      "inputs": [[3, 0, 0], [83, 0, 0]]
    }, 
    {
      "op": "null", 
      "name": "fullyconnected9_weight", 
      "attrs": {
        "flatten": "False", 
        "num_hidden": "32"
      }, 
      "inputs": []
    }, 
    {
      "op": "null", 
      "name": "fullyconnected9_bias", 
      "attrs": {
        "flatten": "False", 
        "num_hidden": "32"
      }, 
      "inputs": []
    }, 
    {
      "op": "FullyConnected", 
      "name": "fullyconnected9", 
      "attrs": {
        "flatten": "False", 
        "num_hidden": "32"
      }, 
      "inputs": [[86, 0, 0], [87, 0, 0], [88, 0, 0]]
    }, 
    {
      "op": "Activation", 
      "name": "activation9", 
      "attrs": {"act_type": "relu"}, 
      "inputs": [[89, 0, 0]]
    }, 
    {
      "op": "slice", 
      "name": "slice11", 
      "attrs": {
        "begin": "(45, None, None)", 
        "end": "(90, None, None)"
      }, 
      "inputs": [[90, 0, 0]]
    }, 
    {
      "op": "expand_dims", 
      "name": "expand_dims10", 
      "attrs": {"axis": "0"}, 
      "inputs": [[91, 0, 0]]
    }, 
    {
      "op": "Concat", 
      "name": "concat2", 
      "attrs": {
        "dim": "0", 
        "num_args": "3"
      }, 
      "inputs": [[78, 0, 0], [85, 0, 0], [92, 0, 0]]
    }, 
    {
      "op": "max", 
      "name": "max2", 
      "attrs": {"axis": "0"}, 
      "inputs": [[93, 0, 0]]
    }, 
    {
      "op": "SwapAxis", 
      "name": "swapaxes2", 
      "attrs": {
        "dim1": "0", 
        "dim2": "1"
      }, 
      "inputs": [[94, 0, 0]]
    }, 
    {
      "op": "expand_dims", 
      "name": "expand_dims11", 
      "attrs": {"axis": "1"}, 
      "inputs": [[95, 0, 0]]
    }, 
    {
      "op": "slice", 
      "name": "slice12", 
      "attrs": {
        "begin": "(None, 3, None, None)", 
        "end": "(None, 7, None, None)"
      }, 
      "inputs": [[12, 0, 0]]
    }, 
    {
      "op": "Reshape", 
      "name": "reshape3", 
      "attrs": {"shape": "(-1, 180, 32)"}, 
      "inputs": [[97, 0, 0]]
    }, 
    {
      "op": "transpose", 
      "name": "transpose5", 
      "attrs": {"axes": "(1, 0, 2)"}, 
      "inputs": [[98, 0, 0]]
    }, 
    {
      "op": "dot", 
      "name": "dot9", 
      "inputs": [[3, 0, 0], [99, 0, 0]]
    }, 
    {
      "op": "null", 
      "name": "fullyconnected10_weight", 
      "attrs": {
        "flatten": "False", 
        "num_hidden": "32"
      }, 
      "inputs": []
    }, 
    {
      "op": "null", 
      "name": "fullyconnected10_bias", 
      "attrs": {
        "flatten": "False", 
        "num_hidden": "32"
      }, 
      "inputs": []
    }, 
    {
      "op": "FullyConnected", 
      "name": "fullyconnected10", 
      "attrs": {
        "flatten": "False", 
        "num_hidden": "32"
      }, 
      "inputs": [[100, 0, 0], [101, 0, 0], [102, 0, 0]]
    }, 
    {
      "op": "Activation", 
      "name": "activation10", 
      "attrs": {"act_type": "relu"}, 
      "inputs": [[103, 0, 0]]
    }, 
    {
      "op": "slice", 
      "name": "slice13", 
      "attrs": {
        "begin": "(45, None, None)", 
        "end": "(90, None, None)"
      }, 
      "inputs": [[104, 0, 0]]
    }, 
    {
      "op": "expand_dims", 
      "name": "expand_dims12", 
      "attrs": {"axis": "0"}, 
      "inputs": [[105, 0, 0]]
    }, 
    {
      "op": "dot", 
      "name": "dot10", 
      "inputs": [[3, 0, 0], [104, 0, 0]]
    }, 
    {
      "op": "null", 
      "name": "fullyconnected11_weight", 
      "attrs": {
        "flatten": "False", 
        "num_hidden": "32"
      }, 
      "inputs": []
    }, 
    {
      "op": "null", 
      "name": "fullyconnected11_bias", 
      "attrs": {
        "flatten": "False", 
        "num_hidden": "32"
      }, 
      "inputs": []
    }, 
    {
      "op": "FullyConnected", 
      "name": "fullyconnected11", 
      "attrs": {
        "flatten": "False", 
        "num_hidden": "32"
      }, 
      "inputs": [[107, 0, 0], [108, 0, 0], [109, 0, 0]]
    }, 
    {
      "op": "Activation", 
      "name": "activation11", 
      "attrs": {"act_type": "relu"}, 
      "inputs": [[110, 0, 0]]
    }, 
    {
      "op": "slice", 
      "name": "slice14", 
      "attrs": {
        "begin": "(45, None, None)", 
        "end": "(90, None, None)"
      }, 
      "inputs": [[111, 0, 0]]
    }, 
    {
      "op": "expand_dims", 
      "name": "expand_dims13", 
      "attrs": {"axis": "0"}, 
      "inputs": [[112, 0, 0]]
    }, 
    {
      "op": "dot", 
      "name": "dot11", 
      "inputs": [[3, 0, 0], [111, 0, 0]]
    }, 
    {
      "op": "null", 
      "name": "fullyconnected12_weight", 
      "attrs": {
        "flatten": "False", 
        "num_hidden": "32"
      }, 
      "inputs": []
    }, 
    {
      "op": "null", 
      "name": "fullyconnected12_bias", 
      "attrs": {
        "flatten": "False", 
        "num_hidden": "32"
      }, 
      "inputs": []
    }, 
    {
      "op": "FullyConnected", 
      "name": "fullyconnected12", 
      "attrs": {
        "flatten": "False", 
        "num_hidden": "32"
      }, 
      "inputs": [[114, 0, 0], [115, 0, 0], [116, 0, 0]]
    }, 
    {
      "op": "Activation", 
      "name": "activation12", 
      "attrs": {"act_type": "relu"}, 
      "inputs": [[117, 0, 0]]
    }, 
    {
      "op": "slice", 
      "name": "slice15", 
      "attrs": {
        "begin": "(45, None, None)", 
        "end": "(90, None, None)"
      }, 
      "inputs": [[118, 0, 0]]
    }, 
    {
      "op": "expand_dims", 
      "name": "expand_dims14", 
      "attrs": {"axis": "0"}, 
      "inputs": [[119, 0, 0]]
    }, 
    {
      "op": "Concat", 
      "name": "concat3", 
      "attrs": {
        "dim": "0", 
        "num_args": "3"
      }, 
      "inputs": [[106, 0, 0], [113, 0, 0], [120, 0, 0]]
    }, 
    {
      "op": "max", 
      "name": "max3", 
      "attrs": {"axis": "0"}, 
      "inputs": [[121, 0, 0]]
    }, 
    {
      "op": "SwapAxis", 
      "name": "swapaxes3", 
      "attrs": {
        "dim1": "0", 
        "dim2": "1"
      }, 
      "inputs": [[122, 0, 0]]
    }, 
    {
      "op": "expand_dims", 
      "name": "expand_dims15", 
      "attrs": {"axis": "1"}, 
      "inputs": [[123, 0, 0]]
    }, 
    {
      "op": "slice", 
      "name": "slice16", 
      "attrs": {
        "begin": "(None, 4, None, None)", 
        "end": "(None, 8, None, None)"
      }, 
      "inputs": [[12, 0, 0]]
    }, 
    {
      "op": "Reshape", 
      "name": "reshape4", 
      "attrs": {"shape": "(-1, 180, 32)"}, 
      "inputs": [[125, 0, 0]]
    }, 
    {
      "op": "transpose", 
      "name": "transpose6", 
      "attrs": {"axes": "(1, 0, 2)"}, 
      "inputs": [[126, 0, 0]]
    }, 
    {
      "op": "dot", 
      "name": "dot12", 
      "inputs": [[3, 0, 0], [127, 0, 0]]
    }, 
    {
      "op": "null", 
      "name": "fullyconnected13_weight", 
      "attrs": {
        "flatten": "False", 
        "num_hidden": "32"
      }, 
      "inputs": []
    }, 
    {
      "op": "null", 
      "name": "fullyconnected13_bias", 
      "attrs": {
        "flatten": "False", 
        "num_hidden": "32"
      }, 
      "inputs": []
    }, 
    {
      "op": "FullyConnected", 
      "name": "fullyconnected13", 
      "attrs": {
        "flatten": "False", 
        "num_hidden": "32"
      }, 
      "inputs": [[128, 0, 0], [129, 0, 0], [130, 0, 0]]
    }, 
    {
      "op": "Activation", 
      "name": "activation13", 
      "attrs": {"act_type": "relu"}, 
      "inputs": [[131, 0, 0]]
    }, 
    {
      "op": "slice", 
      "name": "slice17", 
      "attrs": {
        "begin": "(45, None, None)", 
        "end": "(90, None, None)"
      }, 
      "inputs": [[132, 0, 0]]
    }, 
    {
      "op": "expand_dims", 
      "name": "expand_dims16", 
      "attrs": {"axis": "0"}, 
      "inputs": [[133, 0, 0]]
    }, 
    {
      "op": "dot", 
      "name": "dot13", 
      "inputs": [[3, 0, 0], [132, 0, 0]]
    }, 
    {
      "op": "null", 
      "name": "fullyconnected14_weight", 
      "attrs": {
        "flatten": "False", 
        "num_hidden": "32"
      }, 
      "inputs": []
    }, 
    {
      "op": "null", 
      "name": "fullyconnected14_bias", 
      "attrs": {
        "flatten": "False", 
        "num_hidden": "32"
      }, 
      "inputs": []
    }, 
    {
      "op": "FullyConnected", 
      "name": "fullyconnected14", 
      "attrs": {
        "flatten": "False", 
        "num_hidden": "32"
      }, 
      "inputs": [[135, 0, 0], [136, 0, 0], [137, 0, 0]]
    }, 
    {
      "op": "Activation", 
      "name": "activation14", 
      "attrs": {"act_type": "relu"}, 
      "inputs": [[138, 0, 0]]
    }, 
    {
      "op": "slice", 
      "name": "slice18", 
      "attrs": {
        "begin": "(45, None, None)", 
        "end": "(90, None, None)"
      }, 
      "inputs": [[139, 0, 0]]
    }, 
    {
      "op": "expand_dims", 
      "name": "expand_dims17", 
      "attrs": {"axis": "0"}, 
      "inputs": [[140, 0, 0]]
    }, 
    {
      "op": "dot", 
      "name": "dot14", 
      "inputs": [[3, 0, 0], [139, 0, 0]]
    }, 
    {
      "op": "null", 
      "name": "fullyconnected15_weight", 
      "attrs": {
        "flatten": "False", 
        "num_hidden": "32"
      }, 
      "inputs": []
    }, 
    {
      "op": "null", 
      "name": "fullyconnected15_bias", 
      "attrs": {
        "flatten": "False", 
        "num_hidden": "32"
      }, 
      "inputs": []
    }, 
    {
      "op": "FullyConnected", 
      "name": "fullyconnected15", 
      "attrs": {
        "flatten": "False", 
        "num_hidden": "32"
      }, 
      "inputs": [[142, 0, 0], [143, 0, 0], [144, 0, 0]]
    }, 
    {
      "op": "Activation", 
      "name": "activation15", 
      "attrs": {"act_type": "relu"}, 
      "inputs": [[145, 0, 0]]
    }, 
    {
      "op": "slice", 
      "name": "slice19", 
      "attrs": {
        "begin": "(45, None, None)", 
        "end": "(90, None, None)"
      }, 
      "inputs": [[146, 0, 0]]
    }, 
    {
      "op": "expand_dims", 
      "name": "expand_dims18", 
      "attrs": {"axis": "0"}, 
      "inputs": [[147, 0, 0]]
    }, 
    {
      "op": "Concat", 
      "name": "concat4", 
      "attrs": {
        "dim": "0", 
        "num_args": "3"
      }, 
      "inputs": [[134, 0, 0], [141, 0, 0], [148, 0, 0]]
    }, 
    {
      "op": "max", 
      "name": "max4", 
      "attrs": {"axis": "0"}, 
      "inputs": [[149, 0, 0]]
    }, 
    {
      "op": "SwapAxis", 
      "name": "swapaxes4", 
      "attrs": {
        "dim1": "0", 
        "dim2": "1"
      }, 
      "inputs": [[150, 0, 0]]
    }, 
    {
      "op": "expand_dims", 
      "name": "expand_dims19", 
      "attrs": {"axis": "1"}, 
      "inputs": [[151, 0, 0]]
    }, 
    {
      "op": "slice", 
      "name": "slice20", 
      "attrs": {
        "begin": "(None, 5, None, None)", 
        "end": "(None, 9, None, None)"
      }, 
      "inputs": [[12, 0, 0]]
    }, 
    {
      "op": "Reshape", 
      "name": "reshape5", 
      "attrs": {"shape": "(-1, 180, 32)"}, 
      "inputs": [[153, 0, 0]]
    }, 
    {
      "op": "transpose", 
      "name": "transpose7", 
      "attrs": {"axes": "(1, 0, 2)"}, 
      "inputs": [[154, 0, 0]]
    }, 
    {
      "op": "dot", 
      "name": "dot15", 
      "inputs": [[3, 0, 0], [155, 0, 0]]
    }, 
    {
      "op": "null", 
      "name": "fullyconnected16_weight", 
      "attrs": {
        "flatten": "False", 
        "num_hidden": "32"
      }, 
      "inputs": []
    }, 
    {
      "op": "null", 
      "name": "fullyconnected16_bias", 
      "attrs": {
        "flatten": "False", 
        "num_hidden": "32"
      }, 
      "inputs": []
    }, 
    {
      "op": "FullyConnected", 
      "name": "fullyconnected16", 
      "attrs": {
        "flatten": "False", 
        "num_hidden": "32"
      }, 
      "inputs": [[156, 0, 0], [157, 0, 0], [158, 0, 0]]
    }, 
    {
      "op": "Activation", 
      "name": "activation16", 
      "attrs": {"act_type": "relu"}, 
      "inputs": [[159, 0, 0]]
    }, 
    {
      "op": "slice", 
      "name": "slice21", 
      "attrs": {
        "begin": "(45, None, None)", 
        "end": "(90, None, None)"
      }, 
      "inputs": [[160, 0, 0]]
    }, 
    {
      "op": "expand_dims", 
      "name": "expand_dims20", 
      "attrs": {"axis": "0"}, 
      "inputs": [[161, 0, 0]]
    }, 
    {
      "op": "dot", 
      "name": "dot16", 
      "inputs": [[3, 0, 0], [160, 0, 0]]
    }, 
    {
      "op": "null", 
      "name": "fullyconnected17_weight", 
      "attrs": {
        "flatten": "False", 
        "num_hidden": "32"
      }, 
      "inputs": []
    }, 
    {
      "op": "null", 
      "name": "fullyconnected17_bias", 
      "attrs": {
        "flatten": "False", 
        "num_hidden": "32"
      }, 
      "inputs": []
    }, 
    {
      "op": "FullyConnected", 
      "name": "fullyconnected17", 
      "attrs": {
        "flatten": "False", 
        "num_hidden": "32"
      }, 
      "inputs": [[163, 0, 0], [164, 0, 0], [165, 0, 0]]
    }, 
    {
      "op": "Activation", 
      "name": "activation17", 
      "attrs": {"act_type": "relu"}, 
      "inputs": [[166, 0, 0]]
    }, 
    {
      "op": "slice", 
      "name": "slice22", 
      "attrs": {
        "begin": "(45, None, None)", 
        "end": "(90, None, None)"
      }, 
      "inputs": [[167, 0, 0]]
    }, 
    {
      "op": "expand_dims", 
      "name": "expand_dims21", 
      "attrs": {"axis": "0"}, 
      "inputs": [[168, 0, 0]]
    }, 
    {
      "op": "dot", 
      "name": "dot17", 
      "inputs": [[3, 0, 0], [167, 0, 0]]
    }, 
    {
      "op": "null", 
      "name": "fullyconnected18_weight", 
      "attrs": {
        "flatten": "False", 
        "num_hidden": "32"
      }, 
      "inputs": []
    }, 
    {
      "op": "null", 
      "name": "fullyconnected18_bias", 
      "attrs": {
        "flatten": "False", 
        "num_hidden": "32"
      }, 
      "inputs": []
    }, 
    {
      "op": "FullyConnected", 
      "name": "fullyconnected18", 
      "attrs": {
        "flatten": "False", 
        "num_hidden": "32"
      }, 
      "inputs": [[170, 0, 0], [171, 0, 0], [172, 0, 0]]
    }, 
    {
      "op": "Activation", 
      "name": "activation18", 
      "attrs": {"act_type": "relu"}, 
      "inputs": [[173, 0, 0]]
    }, 
    {
      "op": "slice", 
      "name": "slice23", 
      "attrs": {
        "begin": "(45, None, None)", 
        "end": "(90, None, None)"
      }, 
      "inputs": [[174, 0, 0]]
    }, 
    {
      "op": "expand_dims", 
      "name": "expand_dims22", 
      "attrs": {"axis": "0"}, 
      "inputs": [[175, 0, 0]]
    }, 
    {
      "op": "Concat", 
      "name": "concat5", 
      "attrs": {
        "dim": "0", 
        "num_args": "3"
      }, 
      "inputs": [[162, 0, 0], [169, 0, 0], [176, 0, 0]]
    }, 
    {
      "op": "max", 
      "name": "max5", 
      "attrs": {"axis": "0"}, 
      "inputs": [[177, 0, 0]]
    }, 
    {
      "op": "SwapAxis", 
      "name": "swapaxes5", 
      "attrs": {
        "dim1": "0", 
        "dim2": "1"
      }, 
      "inputs": [[178, 0, 0]]
    }, 
    {
      "op": "expand_dims", 
      "name": "expand_dims23", 
      "attrs": {"axis": "1"}, 
      "inputs": [[179, 0, 0]]
    }, 
    {
      "op": "slice", 
      "name": "slice24", 
      "attrs": {
        "begin": "(None, 6, None, None)", 
        "end": "(None, 10, None, None)"
      }, 
      "inputs": [[12, 0, 0]]
    }, 
    {
      "op": "Reshape", 
      "name": "reshape6", 
      "attrs": {"shape": "(-1, 180, 32)"}, 
      "inputs": [[181, 0, 0]]
    }, 
    {
      "op": "transpose", 
      "name": "transpose8", 
      "attrs": {"axes": "(1, 0, 2)"}, 
      "inputs": [[182, 0, 0]]
    }, 
    {
      "op": "dot", 
      "name": "dot18", 
      "inputs": [[3, 0, 0], [183, 0, 0]]
    }, 
    {
      "op": "null", 
      "name": "fullyconnected19_weight", 
      "attrs": {
        "flatten": "False", 
        "num_hidden": "32"
      }, 
      "inputs": []
    }, 
    {
      "op": "null", 
      "name": "fullyconnected19_bias", 
      "attrs": {
        "flatten": "False", 
        "num_hidden": "32"
      }, 
      "inputs": []
    }, 
    {
      "op": "FullyConnected", 
      "name": "fullyconnected19", 
      "attrs": {
        "flatten": "False", 
        "num_hidden": "32"
      }, 
      "inputs": [[184, 0, 0], [185, 0, 0], [186, 0, 0]]
    }, 
    {
      "op": "Activation", 
      "name": "activation19", 
      "attrs": {"act_type": "relu"}, 
      "inputs": [[187, 0, 0]]
    }, 
    {
      "op": "slice", 
      "name": "slice25", 
      "attrs": {
        "begin": "(45, None, None)", 
        "end": "(90, None, None)"
      }, 
      "inputs": [[188, 0, 0]]
    }, 
    {
      "op": "expand_dims", 
      "name": "expand_dims24", 
      "attrs": {"axis": "0"}, 
      "inputs": [[189, 0, 0]]
    }, 
    {
      "op": "dot", 
      "name": "dot19", 
      "inputs": [[3, 0, 0], [188, 0, 0]]
    }, 
    {
      "op": "null", 
      "name": "fullyconnected20_weight", 
      "attrs": {
        "flatten": "False", 
        "num_hidden": "32"
      }, 
      "inputs": []
    }, 
    {
      "op": "null", 
      "name": "fullyconnected20_bias", 
      "attrs": {
        "flatten": "False", 
        "num_hidden": "32"
      }, 
      "inputs": []
    }, 
    {
      "op": "FullyConnected", 
      "name": "fullyconnected20", 
      "attrs": {
        "flatten": "False", 
        "num_hidden": "32"
      }, 
      "inputs": [[191, 0, 0], [192, 0, 0], [193, 0, 0]]
    }, 
    {
      "op": "Activation", 
      "name": "activation20", 
      "attrs": {"act_type": "relu"}, 
      "inputs": [[194, 0, 0]]
    }, 
    {
      "op": "slice", 
      "name": "slice26", 
      "attrs": {
        "begin": "(45, None, None)", 
        "end": "(90, None, None)"
      }, 
      "inputs": [[195, 0, 0]]
    }, 
    {
      "op": "expand_dims", 
      "name": "expand_dims25", 
      "attrs": {"axis": "0"}, 
      "inputs": [[196, 0, 0]]
    }, 
    {
      "op": "dot", 
      "name": "dot20", 
      "inputs": [[3, 0, 0], [195, 0, 0]]
    }, 
    {
      "op": "null", 
      "name": "fullyconnected21_weight", 
      "attrs": {
        "flatten": "False", 
        "num_hidden": "32"
      }, 
      "inputs": []
    }, 
    {
      "op": "null", 
      "name": "fullyconnected21_bias", 
      "attrs": {
        "flatten": "False", 
        "num_hidden": "32"
      }, 
      "inputs": []
    }, 
    {
      "op": "FullyConnected", 
      "name": "fullyconnected21", 
      "attrs": {
        "flatten": "False", 
        "num_hidden": "32"
      }, 
      "inputs": [[198, 0, 0], [199, 0, 0], [200, 0, 0]]
    }, 
    {
      "op": "Activation", 
      "name": "activation21", 
      "attrs": {"act_type": "relu"}, 
      "inputs": [[201, 0, 0]]
    }, 
    {
      "op": "slice", 
      "name": "slice27", 
      "attrs": {
        "begin": "(45, None, None)", 
        "end": "(90, None, None)"
      }, 
      "inputs": [[202, 0, 0]]
    }, 
    {
      "op": "expand_dims", 
      "name": "expand_dims26", 
      "attrs": {"axis": "0"}, 
      "inputs": [[203, 0, 0]]
    }, 
    {
      "op": "Concat", 
      "name": "concat6", 
      "attrs": {
        "dim": "0", 
        "num_args": "3"
      }, 
      "inputs": [[190, 0, 0], [197, 0, 0], [204, 0, 0]]
    }, 
    {
      "op": "max", 
      "name": "max6", 
      "attrs": {"axis": "0"}, 
      "inputs": [[205, 0, 0]]
    }, 
    {
      "op": "SwapAxis", 
      "name": "swapaxes6", 
      "attrs": {
        "dim1": "0", 
        "dim2": "1"
      }, 
      "inputs": [[206, 0, 0]]
    }, 
    {
      "op": "expand_dims", 
      "name": "expand_dims27", 
      "attrs": {"axis": "1"}, 
      "inputs": [[207, 0, 0]]
    }, 
    {
      "op": "slice", 
      "name": "slice28", 
      "attrs": {
        "begin": "(None, 7, None, None)", 
        "end": "(None, 11, None, None)"
      }, 
      "inputs": [[12, 0, 0]]
    }, 
    {
      "op": "Reshape", 
      "name": "reshape7", 
      "attrs": {"shape": "(-1, 180, 32)"}, 
      "inputs": [[209, 0, 0]]
    }, 
    {
      "op": "transpose", 
      "name": "transpose9", 
      "attrs": {"axes": "(1, 0, 2)"}, 
      "inputs": [[210, 0, 0]]
    }, 
    {
      "op": "dot", 
      "name": "dot21", 
      "inputs": [[3, 0, 0], [211, 0, 0]]
    }, 
    {
      "op": "null", 
      "name": "fullyconnected22_weight", 
      "attrs": {
        "flatten": "False", 
        "num_hidden": "32"
      }, 
      "inputs": []
    }, 
    {
      "op": "null", 
      "name": "fullyconnected22_bias", 
      "attrs": {
        "flatten": "False", 
        "num_hidden": "32"
      }, 
      "inputs": []
    }, 
    {
      "op": "FullyConnected", 
      "name": "fullyconnected22", 
      "attrs": {
        "flatten": "False", 
        "num_hidden": "32"
      }, 
      "inputs": [[212, 0, 0], [213, 0, 0], [214, 0, 0]]
    }, 
    {
      "op": "Activation", 
      "name": "activation22", 
      "attrs": {"act_type": "relu"}, 
      "inputs": [[215, 0, 0]]
    }, 
    {
      "op": "slice", 
      "name": "slice29", 
      "attrs": {
        "begin": "(45, None, None)", 
        "end": "(90, None, None)"
      }, 
      "inputs": [[216, 0, 0]]
    }, 
    {
      "op": "expand_dims", 
      "name": "expand_dims28", 
      "attrs": {"axis": "0"}, 
      "inputs": [[217, 0, 0]]
    }, 
    {
      "op": "dot", 
      "name": "dot22", 
      "inputs": [[3, 0, 0], [216, 0, 0]]
    }, 
    {
      "op": "null", 
      "name": "fullyconnected23_weight", 
      "attrs": {
        "flatten": "False", 
        "num_hidden": "32"
      }, 
      "inputs": []
    }, 
    {
      "op": "null", 
      "name": "fullyconnected23_bias", 
      "attrs": {
        "flatten": "False", 
        "num_hidden": "32"
      }, 
      "inputs": []
    }, 
    {
      "op": "FullyConnected", 
      "name": "fullyconnected23", 
      "attrs": {
        "flatten": "False", 
        "num_hidden": "32"
      }, 
      "inputs": [[219, 0, 0], [220, 0, 0], [221, 0, 0]]
    }, 
    {
      "op": "Activation", 
      "name": "activation23", 
      "attrs": {"act_type": "relu"}, 
      "inputs": [[222, 0, 0]]
    }, 
    {
      "op": "slice", 
      "name": "slice30", 
      "attrs": {
        "begin": "(45, None, None)", 
        "end": "(90, None, None)"
      }, 
      "inputs": [[223, 0, 0]]
    }, 
    {
      "op": "expand_dims", 
      "name": "expand_dims29", 
      "attrs": {"axis": "0"}, 
      "inputs": [[224, 0, 0]]
    }, 
    {
      "op": "dot", 
      "name": "dot23", 
      "inputs": [[3, 0, 0], [223, 0, 0]]
    }, 
    {
      "op": "null", 
      "name": "fullyconnected24_weight", 
      "attrs": {
        "flatten": "False", 
        "num_hidden": "32"
      }, 
      "inputs": []
    }, 
    {
      "op": "null", 
      "name": "fullyconnected24_bias", 
      "attrs": {
        "flatten": "False", 
        "num_hidden": "32"
      }, 
      "inputs": []
    }, 
    {
      "op": "FullyConnected", 
      "name": "fullyconnected24", 
      "attrs": {
        "flatten": "False", 
        "num_hidden": "32"
      }, 
      "inputs": [[226, 0, 0], [227, 0, 0], [228, 0, 0]]
    }, 
    {
      "op": "Activation", 
      "name": "activation24", 
      "attrs": {"act_type": "relu"}, 
      "inputs": [[229, 0, 0]]
    }, 
    {
      "op": "slice", 
      "name": "slice31", 
      "attrs": {
        "begin": "(45, None, None)", 
        "end": "(90, None, None)"
      }, 
      "inputs": [[230, 0, 0]]
    }, 
    {
      "op": "expand_dims", 
      "name": "expand_dims30", 
      "attrs": {"axis": "0"}, 
      "inputs": [[231, 0, 0]]
    }, 
    {
      "op": "Concat", 
      "name": "concat7", 
      "attrs": {
        "dim": "0", 
        "num_args": "3"
      }, 
      "inputs": [[218, 0, 0], [225, 0, 0], [232, 0, 0]]
    }, 
    {
      "op": "max", 
      "name": "max7", 
      "attrs": {"axis": "0"}, 
      "inputs": [[233, 0, 0]]
    }, 
    {
      "op": "SwapAxis", 
      "name": "swapaxes7", 
      "attrs": {
        "dim1": "0", 
        "dim2": "1"
      }, 
      "inputs": [[234, 0, 0]]
    }, 
    {
      "op": "expand_dims", 
      "name": "expand_dims31", 
      "attrs": {"axis": "1"}, 
      "inputs": [[235, 0, 0]]
    }, 
    {
      "op": "slice", 
      "name": "slice32", 
      "attrs": {
        "begin": "(None, 8, None, None)", 
        "end": "(None, 12, None, None)"
      }, 
      "inputs": [[12, 0, 0]]
    }, 
    {
      "op": "Reshape", 
      "name": "reshape8", 
      "attrs": {"shape": "(-1, 180, 32)"}, 
      "inputs": [[237, 0, 0]]
    }, 
    {
      "op": "transpose", 
      "name": "transpose10", 
      "attrs": {"axes": "(1, 0, 2)"}, 
      "inputs": [[238, 0, 0]]
    }, 
    {
      "op": "dot", 
      "name": "dot24", 
      "inputs": [[3, 0, 0], [239, 0, 0]]
    }, 
    {
      "op": "null", 
      "name": "fullyconnected25_weight", 
      "attrs": {
        "flatten": "False", 
        "num_hidden": "32"
      }, 
      "inputs": []
    }, 
    {
      "op": "null", 
      "name": "fullyconnected25_bias", 
      "attrs": {
        "flatten": "False", 
        "num_hidden": "32"
      }, 
      "inputs": []
    }, 
    {
      "op": "FullyConnected", 
      "name": "fullyconnected25", 
      "attrs": {
        "flatten": "False", 
        "num_hidden": "32"
      }, 
      "inputs": [[240, 0, 0], [241, 0, 0], [242, 0, 0]]
    }, 
    {
      "op": "Activation", 
      "name": "activation25", 
      "attrs": {"act_type": "relu"}, 
      "inputs": [[243, 0, 0]]
    }, 
    {
      "op": "slice", 
      "name": "slice33", 
      "attrs": {
        "begin": "(45, None, None)", 
        "end": "(90, None, None)"
      }, 
      "inputs": [[244, 0, 0]]
    }, 
    {
      "op": "expand_dims", 
      "name": "expand_dims32", 
      "attrs": {"axis": "0"}, 
      "inputs": [[245, 0, 0]]
    }, 
    {
      "op": "dot", 
      "name": "dot25", 
      "inputs": [[3, 0, 0], [244, 0, 0]]
    }, 
    {
      "op": "null", 
      "name": "fullyconnected26_weight", 
      "attrs": {
        "flatten": "False", 
        "num_hidden": "32"
      }, 
      "inputs": []
    }, 
    {
      "op": "null", 
      "name": "fullyconnected26_bias", 
      "attrs": {
        "flatten": "False", 
        "num_hidden": "32"
      }, 
      "inputs": []
    }, 
    {
      "op": "FullyConnected", 
      "name": "fullyconnected26", 
      "attrs": {
        "flatten": "False", 
        "num_hidden": "32"
      }, 
      "inputs": [[247, 0, 0], [248, 0, 0], [249, 0, 0]]
    }, 
    {
      "op": "Activation", 
      "name": "activation26", 
      "attrs": {"act_type": "relu"}, 
      "inputs": [[250, 0, 0]]
    }, 
    {
      "op": "slice", 
      "name": "slice34", 
      "attrs": {
        "begin": "(45, None, None)", 
        "end": "(90, None, None)"
      }, 
      "inputs": [[251, 0, 0]]
    }, 
    {
      "op": "expand_dims", 
      "name": "expand_dims33", 
      "attrs": {"axis": "0"}, 
      "inputs": [[252, 0, 0]]
    }, 
    {
      "op": "dot", 
      "name": "dot26", 
      "inputs": [[3, 0, 0], [251, 0, 0]]
    }, 
    {
      "op": "null", 
      "name": "fullyconnected27_weight", 
      "attrs": {
        "flatten": "False", 
        "num_hidden": "32"
      }, 
      "inputs": []
    }, 
    {
      "op": "null", 
      "name": "fullyconnected27_bias", 
      "attrs": {
        "flatten": "False", 
        "num_hidden": "32"
      }, 
      "inputs": []
    }, 
    {
      "op": "FullyConnected", 
      "name": "fullyconnected27", 
      "attrs": {
        "flatten": "False", 
        "num_hidden": "32"
      }, 
      "inputs": [[254, 0, 0], [255, 0, 0], [256, 0, 0]]
    }, 
    {
      "op": "Activation", 
      "name": "activation27", 
      "attrs": {"act_type": "relu"}, 
      "inputs": [[257, 0, 0]]
    }, 
    {
      "op": "slice", 
      "name": "slice35", 
      "attrs": {
        "begin": "(45, None, None)", 
        "end": "(90, None, None)"
      }, 
      "inputs": [[258, 0, 0]]
    }, 
    {
      "op": "expand_dims", 
      "name": "expand_dims34", 
      "attrs": {"axis": "0"}, 
      "inputs": [[259, 0, 0]]
    }, 
    {
      "op": "Concat", 
      "name": "concat8", 
      "attrs": {
        "dim": "0", 
        "num_args": "3"
      }, 
      "inputs": [[246, 0, 0], [253, 0, 0], [260, 0, 0]]
    }, 
    {
      "op": "max", 
      "name": "max8", 
      "attrs": {"axis": "0"}, 
      "inputs": [[261, 0, 0]]
    }, 
    {
      "op": "SwapAxis", 
      "name": "swapaxes8", 
      "attrs": {
        "dim1": "0", 
        "dim2": "1"
      }, 
      "inputs": [[262, 0, 0]]
    }, 
    {
      "op": "expand_dims", 
      "name": "expand_dims35", 
      "attrs": {"axis": "1"}, 
      "inputs": [[263, 0, 0]]
    }, 
    {
      "op": "slice", 
      "name": "slice36", 
      "attrs": {
        "begin": "(None, 9, None, None)", 
        "end": "(None, 13, None, None)"
      }, 
      "inputs": [[12, 0, 0]]
    }, 
    {
      "op": "Reshape", 
      "name": "reshape9", 
      "attrs": {"shape": "(-1, 180, 32)"}, 
      "inputs": [[265, 0, 0]]
    }, 
    {
      "op": "transpose", 
      "name": "transpose11", 
      "attrs": {"axes": "(1, 0, 2)"}, 
      "inputs": [[266, 0, 0]]
    }, 
    {
      "op": "dot", 
      "name": "dot27", 
      "inputs": [[3, 0, 0], [267, 0, 0]]
    }, 
    {
      "op": "null", 
      "name": "fullyconnected28_weight", 
      "attrs": {
        "flatten": "False", 
        "num_hidden": "32"
      }, 
      "inputs": []
    }, 
    {
      "op": "null", 
      "name": "fullyconnected28_bias", 
      "attrs": {
        "flatten": "False", 
        "num_hidden": "32"
      }, 
      "inputs": []
    }, 
    {
      "op": "FullyConnected", 
      "name": "fullyconnected28", 
      "attrs": {
        "flatten": "False", 
        "num_hidden": "32"
      }, 
      "inputs": [[268, 0, 0], [269, 0, 0], [270, 0, 0]]
    }, 
    {
      "op": "Activation", 
      "name": "activation28", 
      "attrs": {"act_type": "relu"}, 
      "inputs": [[271, 0, 0]]
    }, 
    {
      "op": "slice", 
      "name": "slice37", 
      "attrs": {
        "begin": "(45, None, None)", 
        "end": "(90, None, None)"
      }, 
      "inputs": [[272, 0, 0]]
    }, 
    {
      "op": "expand_dims", 
      "name": "expand_dims36", 
      "attrs": {"axis": "0"}, 
      "inputs": [[273, 0, 0]]
    }, 
    {
      "op": "dot", 
      "name": "dot28", 
      "inputs": [[3, 0, 0], [272, 0, 0]]
    }, 
    {
      "op": "null", 
      "name": "fullyconnected29_weight", 
      "attrs": {
        "flatten": "False", 
        "num_hidden": "32"
      }, 
      "inputs": []
    }, 
    {
      "op": "null", 
      "name": "fullyconnected29_bias", 
      "attrs": {
        "flatten": "False", 
        "num_hidden": "32"
      }, 
      "inputs": []
    }, 
    {
      "op": "FullyConnected", 
      "name": "fullyconnected29", 
      "attrs": {
        "flatten": "False", 
        "num_hidden": "32"
      }, 
      "inputs": [[275, 0, 0], [276, 0, 0], [277, 0, 0]]
    }, 
    {
      "op": "Activation", 
      "name": "activation29", 
      "attrs": {"act_type": "relu"}, 
      "inputs": [[278, 0, 0]]
    }, 
    {
      "op": "slice", 
      "name": "slice38", 
      "attrs": {
        "begin": "(45, None, None)", 
        "end": "(90, None, None)"
      }, 
      "inputs": [[279, 0, 0]]
    }, 
    {
      "op": "expand_dims", 
      "name": "expand_dims37", 
      "attrs": {"axis": "0"}, 
      "inputs": [[280, 0, 0]]
    }, 
    {
      "op": "dot", 
      "name": "dot29", 
      "inputs": [[3, 0, 0], [279, 0, 0]]
    }, 
    {
      "op": "null", 
      "name": "fullyconnected30_weight", 
      "attrs": {
        "flatten": "False", 
        "num_hidden": "32"
      }, 
      "inputs": []
    }, 
    {
      "op": "null", 
      "name": "fullyconnected30_bias", 
      "attrs": {
        "flatten": "False", 
        "num_hidden": "32"
      }, 
      "inputs": []
    }, 
    {
      "op": "FullyConnected", 
      "name": "fullyconnected30", 
      "attrs": {
        "flatten": "False", 
        "num_hidden": "32"
      }, 
      "inputs": [[282, 0, 0], [283, 0, 0], [284, 0, 0]]
    }, 
    {
      "op": "Activation", 
      "name": "activation30", 
      "attrs": {"act_type": "relu"}, 
      "inputs": [[285, 0, 0]]
    }, 
    {
      "op": "slice", 
      "name": "slice39", 
      "attrs": {
        "begin": "(45, None, None)", 
        "end": "(90, None, None)"
      }, 
      "inputs": [[286, 0, 0]]
    }, 
    {
      "op": "expand_dims", 
      "name": "expand_dims38", 
      "attrs": {"axis": "0"}, 
      "inputs": [[287, 0, 0]]
    }, 
    {
      "op": "Concat", 
      "name": "concat9", 
      "attrs": {
        "dim": "0", 
        "num_args": "3"
      }, 
      "inputs": [[274, 0, 0], [281, 0, 0], [288, 0, 0]]
    }, 
    {
      "op": "max", 
      "name": "max9", 
      "attrs": {"axis": "0"}, 
      "inputs": [[289, 0, 0]]
    }, 
    {
      "op": "SwapAxis", 
      "name": "swapaxes9", 
      "attrs": {
        "dim1": "0", 
        "dim2": "1"
      }, 
      "inputs": [[290, 0, 0]]
    }, 
    {
      "op": "expand_dims", 
      "name": "expand_dims39", 
      "attrs": {"axis": "1"}, 
      "inputs": [[291, 0, 0]]
    }, 
    {
      "op": "slice", 
      "name": "slice40", 
      "attrs": {
        "begin": "(None, 10, None, None)", 
        "end": "(None, 14, None, None)"
      }, 
      "inputs": [[12, 0, 0]]
    }, 
    {
      "op": "Reshape", 
      "name": "reshape10", 
      "attrs": {"shape": "(-1, 180, 32)"}, 
      "inputs": [[293, 0, 0]]
    }, 
    {
      "op": "transpose", 
      "name": "transpose12", 
      "attrs": {"axes": "(1, 0, 2)"}, 
      "inputs": [[294, 0, 0]]
    }, 
    {
      "op": "dot", 
      "name": "dot30", 
      "inputs": [[3, 0, 0], [295, 0, 0]]
    }, 
    {
      "op": "null", 
      "name": "fullyconnected31_weight", 
      "attrs": {
        "flatten": "False", 
        "num_hidden": "32"
      }, 
      "inputs": []
    }, 
    {
      "op": "null", 
      "name": "fullyconnected31_bias", 
      "attrs": {
        "flatten": "False", 
        "num_hidden": "32"
      }, 
      "inputs": []
    }, 
    {
      "op": "FullyConnected", 
      "name": "fullyconnected31", 
      "attrs": {
        "flatten": "False", 
        "num_hidden": "32"
      }, 
      "inputs": [[296, 0, 0], [297, 0, 0], [298, 0, 0]]
    }, 
    {
      "op": "Activation", 
      "name": "activation31", 
      "attrs": {"act_type": "relu"}, 
      "inputs": [[299, 0, 0]]
    }, 
    {
      "op": "slice", 
      "name": "slice41", 
      "attrs": {
        "begin": "(45, None, None)", 
        "end": "(90, None, None)"
      }, 
      "inputs": [[300, 0, 0]]
    }, 
    {
      "op": "expand_dims", 
      "name": "expand_dims40", 
      "attrs": {"axis": "0"}, 
      "inputs": [[301, 0, 0]]
    }, 
    {
      "op": "dot", 
      "name": "dot31", 
      "inputs": [[3, 0, 0], [300, 0, 0]]
    }, 
    {
      "op": "null", 
      "name": "fullyconnected32_weight", 
      "attrs": {
        "flatten": "False", 
        "num_hidden": "32"
      }, 
      "inputs": []
    }, 
    {
      "op": "null", 
      "name": "fullyconnected32_bias", 
      "attrs": {
        "flatten": "False", 
        "num_hidden": "32"
      }, 
      "inputs": []
    }, 
    {
      "op": "FullyConnected", 
      "name": "fullyconnected32", 
      "attrs": {
        "flatten": "False", 
        "num_hidden": "32"
      }, 
      "inputs": [[303, 0, 0], [304, 0, 0], [305, 0, 0]]
    }, 
    {
      "op": "Activation", 
      "name": "activation32", 
      "attrs": {"act_type": "relu"}, 
      "inputs": [[306, 0, 0]]
    }, 
    {
      "op": "slice", 
      "name": "slice42", 
      "attrs": {
        "begin": "(45, None, None)", 
        "end": "(90, None, None)"
      }, 
      "inputs": [[307, 0, 0]]
    }, 
    {
      "op": "expand_dims", 
      "name": "expand_dims41", 
      "attrs": {"axis": "0"}, 
      "inputs": [[308, 0, 0]]
    }, 
    {
      "op": "dot", 
      "name": "dot32", 
      "inputs": [[3, 0, 0], [307, 0, 0]]
    }, 
    {
      "op": "null", 
      "name": "fullyconnected33_weight", 
      "attrs": {
        "flatten": "False", 
        "num_hidden": "32"
      }, 
      "inputs": []
    }, 
    {
      "op": "null", 
      "name": "fullyconnected33_bias", 
      "attrs": {
        "flatten": "False", 
        "num_hidden": "32"
      }, 
      "inputs": []
    }, 
    {
      "op": "FullyConnected", 
      "name": "fullyconnected33", 
      "attrs": {
        "flatten": "False", 
        "num_hidden": "32"
      }, 
      "inputs": [[310, 0, 0], [311, 0, 0], [312, 0, 0]]
    }, 
    {
      "op": "Activation", 
      "name": "activation33", 
      "attrs": {"act_type": "relu"}, 
      "inputs": [[313, 0, 0]]
    }, 
    {
      "op": "slice", 
      "name": "slice43", 
      "attrs": {
        "begin": "(45, None, None)", 
        "end": "(90, None, None)"
      }, 
      "inputs": [[314, 0, 0]]
    }, 
    {
      "op": "expand_dims", 
      "name": "expand_dims42", 
      "attrs": {"axis": "0"}, 
      "inputs": [[315, 0, 0]]
    }, 
    {
      "op": "Concat", 
      "name": "concat10", 
      "attrs": {
        "dim": "0", 
        "num_args": "3"
      }, 
      "inputs": [[302, 0, 0], [309, 0, 0], [316, 0, 0]]
    }, 
    {
      "op": "max", 
      "name": "max10", 
      "attrs": {"axis": "0"}, 
      "inputs": [[317, 0, 0]]
    }, 
    {
      "op": "SwapAxis", 
      "name": "swapaxes10", 
      "attrs": {
        "dim1": "0", 
        "dim2": "1"
      }, 
      "inputs": [[318, 0, 0]]
    }, 
    {
      "op": "expand_dims", 
      "name": "expand_dims43", 
      "attrs": {"axis": "1"}, 
      "inputs": [[319, 0, 0]]
    }, 
    {
      "op": "slice", 
      "name": "slice44", 
      "attrs": {
        "begin": "(None, 11, None, None)", 
        "end": "(None, 15, None, None)"
      }, 
      "inputs": [[12, 0, 0]]
    }, 
    {
      "op": "Reshape", 
      "name": "reshape11", 
      "attrs": {"shape": "(-1, 180, 32)"}, 
      "inputs": [[321, 0, 0]]
    }, 
    {
      "op": "transpose", 
      "name": "transpose13", 
      "attrs": {"axes": "(1, 0, 2)"}, 
      "inputs": [[322, 0, 0]]
    }, 
    {
      "op": "dot", 
      "name": "dot33", 
      "inputs": [[3, 0, 0], [323, 0, 0]]
    }, 
    {
      "op": "null", 
      "name": "fullyconnected34_weight", 
      "attrs": {
        "flatten": "False", 
        "num_hidden": "32"
      }, 
      "inputs": []
    }, 
    {
      "op": "null", 
      "name": "fullyconnected34_bias", 
      "attrs": {
        "flatten": "False", 
        "num_hidden": "32"
      }, 
      "inputs": []
    }, 
    {
      "op": "FullyConnected", 
      "name": "fullyconnected34", 
      "attrs": {
        "flatten": "False", 
        "num_hidden": "32"
      }, 
      "inputs": [[324, 0, 0], [325, 0, 0], [326, 0, 0]]
    }, 
    {
      "op": "Activation", 
      "name": "activation34", 
      "attrs": {"act_type": "relu"}, 
      "inputs": [[327, 0, 0]]
    }, 
    {
      "op": "slice", 
      "name": "slice45", 
      "attrs": {
        "begin": "(45, None, None)", 
        "end": "(90, None, None)"
      }, 
      "inputs": [[328, 0, 0]]
    }, 
    {
      "op": "expand_dims", 
      "name": "expand_dims44", 
      "attrs": {"axis": "0"}, 
      "inputs": [[329, 0, 0]]
    }, 
    {
      "op": "dot", 
      "name": "dot34", 
      "inputs": [[3, 0, 0], [328, 0, 0]]
    }, 
    {
      "op": "null", 
      "name": "fullyconnected35_weight", 
      "attrs": {
        "flatten": "False", 
        "num_hidden": "32"
      }, 
      "inputs": []
    }, 
    {
      "op": "null", 
      "name": "fullyconnected35_bias", 
      "attrs": {
        "flatten": "False", 
        "num_hidden": "32"
      }, 
      "inputs": []
    }, 
    {
      "op": "FullyConnected", 
      "name": "fullyconnected35", 
      "attrs": {
        "flatten": "False", 
        "num_hidden": "32"
      }, 
      "inputs": [[331, 0, 0], [332, 0, 0], [333, 0, 0]]
    }, 
    {
      "op": "Activation", 
      "name": "activation35", 
      "attrs": {"act_type": "relu"}, 
      "inputs": [[334, 0, 0]]
    }, 
    {
      "op": "slice", 
      "name": "slice46", 
      "attrs": {
        "begin": "(45, None, None)", 
        "end": "(90, None, None)"
      }, 
      "inputs": [[335, 0, 0]]
    }, 
    {
      "op": "expand_dims", 
      "name": "expand_dims45", 
      "attrs": {"axis": "0"}, 
      "inputs": [[336, 0, 0]]
    }, 
    {
      "op": "dot", 
      "name": "dot35", 
      "inputs": [[3, 0, 0], [335, 0, 0]]
    }, 
    {
      "op": "null", 
      "name": "fullyconnected36_weight", 
      "attrs": {
        "flatten": "False", 
        "num_hidden": "32"
      }, 
      "inputs": []
    }, 
    {
      "op": "null", 
      "name": "fullyconnected36_bias", 
      "attrs": {
        "flatten": "False", 
        "num_hidden": "32"
      }, 
      "inputs": []
    }, 
    {
      "op": "FullyConnected", 
      "name": "fullyconnected36", 
      "attrs": {
        "flatten": "False", 
        "num_hidden": "32"
      }, 
      "inputs": [[338, 0, 0], [339, 0, 0], [340, 0, 0]]
    }, 
    {
      "op": "Activation", 
      "name": "activation36", 
      "attrs": {"act_type": "relu"}, 
      "inputs": [[341, 0, 0]]
    }, 
    {
      "op": "slice", 
      "name": "slice47", 
      "attrs": {
        "begin": "(45, None, None)", 
        "end": "(90, None, None)"
      }, 
      "inputs": [[342, 0, 0]]
    }, 
    {
      "op": "expand_dims", 
      "name": "expand_dims46", 
      "attrs": {"axis": "0"}, 
      "inputs": [[343, 0, 0]]
    }, 
    {
      "op": "Concat", 
      "name": "concat11", 
      "attrs": {
        "dim": "0", 
        "num_args": "3"
      }, 
      "inputs": [[330, 0, 0], [337, 0, 0], [344, 0, 0]]
    }, 
    {
      "op": "max", 
      "name": "max11", 
      "attrs": {"axis": "0"}, 
      "inputs": [[345, 0, 0]]
    }, 
    {
      "op": "SwapAxis", 
      "name": "swapaxes11", 
      "attrs": {
        "dim1": "0", 
        "dim2": "1"
      }, 
      "inputs": [[346, 0, 0]]
    }, 
    {
      "op": "expand_dims", 
      "name": "expand_dims47", 
      "attrs": {"axis": "1"}, 
      "inputs": [[347, 0, 0]]
    }, 
    {
      "op": "slice", 
      "name": "slice48", 
      "attrs": {
        "begin": "(None, 12, None, None)", 
        "end": "(None, 16, None, None)"
      }, 
      "inputs": [[12, 0, 0]]
    }, 
    {
      "op": "Reshape", 
      "name": "reshape12", 
      "attrs": {"shape": "(-1, 180, 32)"}, 
      "inputs": [[349, 0, 0]]
    }, 
    {
      "op": "transpose", 
      "name": "transpose14", 
      "attrs": {"axes": "(1, 0, 2)"}, 
      "inputs": [[350, 0, 0]]
    }, 
    {
      "op": "dot", 
      "name": "dot36", 
      "inputs": [[3, 0, 0], [351, 0, 0]]
    }, 
    {
      "op": "null", 
      "name": "fullyconnected37_weight", 
      "attrs": {
        "flatten": "False", 
        "num_hidden": "32"
      }, 
      "inputs": []
    }, 
    {
      "op": "null", 
      "name": "fullyconnected37_bias", 
      "attrs": {
        "flatten": "False", 
        "num_hidden": "32"
      }, 
      "inputs": []
    }, 
    {
      "op": "FullyConnected", 
      "name": "fullyconnected37", 
      "attrs": {
        "flatten": "False", 
        "num_hidden": "32"
      }, 
      "inputs": [[352, 0, 0], [353, 0, 0], [354, 0, 0]]
    }, 
    {
      "op": "Activation", 
      "name": "activation37", 
      "attrs": {"act_type": "relu"}, 
      "inputs": [[355, 0, 0]]
    }, 
    {
      "op": "slice", 
      "name": "slice49", 
      "attrs": {
        "begin": "(45, None, None)", 
        "end": "(90, None, None)"
      }, 
      "inputs": [[356, 0, 0]]
    }, 
    {
      "op": "expand_dims", 
      "name": "expand_dims48", 
      "attrs": {"axis": "0"}, 
      "inputs": [[357, 0, 0]]
    }, 
    {
      "op": "dot", 
      "name": "dot37", 
      "inputs": [[3, 0, 0], [356, 0, 0]]
    }, 
    {
      "op": "null", 
      "name": "fullyconnected38_weight", 
      "attrs": {
        "flatten": "False", 
        "num_hidden": "32"
      }, 
      "inputs": []
    }, 
    {
      "op": "null", 
      "name": "fullyconnected38_bias", 
      "attrs": {
        "flatten": "False", 
        "num_hidden": "32"
      }, 
      "inputs": []
    }, 
    {
      "op": "FullyConnected", 
      "name": "fullyconnected38", 
      "attrs": {
        "flatten": "False", 
        "num_hidden": "32"
      }, 
      "inputs": [[359, 0, 0], [360, 0, 0], [361, 0, 0]]
    }, 
    {
      "op": "Activation", 
      "name": "activation38", 
      "attrs": {"act_type": "relu"}, 
      "inputs": [[362, 0, 0]]
    }, 
    {
      "op": "slice", 
      "name": "slice50", 
      "attrs": {
        "begin": "(45, None, None)", 
        "end": "(90, None, None)"
      }, 
      "inputs": [[363, 0, 0]]
    }, 
    {
      "op": "expand_dims", 
      "name": "expand_dims49", 
      "attrs": {"axis": "0"}, 
      "inputs": [[364, 0, 0]]
    }, 
    {
      "op": "dot", 
      "name": "dot38", 
      "inputs": [[3, 0, 0], [363, 0, 0]]
    }, 
    {
      "op": "null", 
      "name": "fullyconnected39_weight", 
      "attrs": {
        "flatten": "False", 
        "num_hidden": "32"
      }, 
      "inputs": []
    }, 
    {
      "op": "null", 
      "name": "fullyconnected39_bias", 
      "attrs": {
        "flatten": "False", 
        "num_hidden": "32"
      }, 
      "inputs": []
    }, 
    {
      "op": "FullyConnected", 
      "name": "fullyconnected39", 
      "attrs": {
        "flatten": "False", 
        "num_hidden": "32"
      }, 
      "inputs": [[366, 0, 0], [367, 0, 0], [368, 0, 0]]
    }, 
    {
      "op": "Activation", 
      "name": "activation39", 
      "attrs": {"act_type": "relu"}, 
      "inputs": [[369, 0, 0]]
    }, 
    {
      "op": "slice", 
      "name": "slice51", 
      "attrs": {
        "begin": "(45, None, None)", 
        "end": "(90, None, None)"
      }, 
      "inputs": [[370, 0, 0]]
    }, 
    {
      "op": "expand_dims", 
      "name": "expand_dims50", 
      "attrs": {"axis": "0"}, 
      "inputs": [[371, 0, 0]]
    }, 
    {
      "op": "Concat", 
      "name": "concat12", 
      "attrs": {
        "dim": "0", 
        "num_args": "3"
      }, 
      "inputs": [[358, 0, 0], [365, 0, 0], [372, 0, 0]]
    }, 
    {
      "op": "max", 
      "name": "max12", 
      "attrs": {"axis": "0"}, 
      "inputs": [[373, 0, 0]]
    }, 
    {
      "op": "SwapAxis", 
      "name": "swapaxes12", 
      "attrs": {
        "dim1": "0", 
        "dim2": "1"
      }, 
      "inputs": [[374, 0, 0]]
    }, 
    {
      "op": "expand_dims", 
      "name": "expand_dims51", 
      "attrs": {"axis": "1"}, 
      "inputs": [[375, 0, 0]]
    }, 
    {
      "op": "slice", 
      "name": "slice52", 
      "attrs": {
        "begin": "(None, 13, None, None)", 
        "end": "(None, 17, None, None)"
      }, 
      "inputs": [[12, 0, 0]]
    }, 
    {
      "op": "Reshape", 
      "name": "reshape13", 
      "attrs": {"shape": "(-1, 180, 32)"}, 
      "inputs": [[377, 0, 0]]
    }, 
    {
      "op": "transpose", 
      "name": "transpose15", 
      "attrs": {"axes": "(1, 0, 2)"}, 
      "inputs": [[378, 0, 0]]
    }, 
    {
      "op": "dot", 
      "name": "dot39", 
      "inputs": [[3, 0, 0], [379, 0, 0]]
    }, 
    {
      "op": "null", 
      "name": "fullyconnected40_weight", 
      "attrs": {
        "flatten": "False", 
        "num_hidden": "32"
      }, 
      "inputs": []
    }, 
    {
      "op": "null", 
      "name": "fullyconnected40_bias", 
      "attrs": {
        "flatten": "False", 
        "num_hidden": "32"
      }, 
      "inputs": []
    }, 
    {
      "op": "FullyConnected", 
      "name": "fullyconnected40", 
      "attrs": {
        "flatten": "False", 
        "num_hidden": "32"
      }, 
      "inputs": [[380, 0, 0], [381, 0, 0], [382, 0, 0]]
    }, 
    {
      "op": "Activation", 
      "name": "activation40", 
      "attrs": {"act_type": "relu"}, 
      "inputs": [[383, 0, 0]]
    }, 
    {
      "op": "slice", 
      "name": "slice53", 
      "attrs": {
        "begin": "(45, None, None)", 
        "end": "(90, None, None)"
      }, 
      "inputs": [[384, 0, 0]]
    }, 
    {
      "op": "expand_dims", 
      "name": "expand_dims52", 
      "attrs": {"axis": "0"}, 
      "inputs": [[385, 0, 0]]
    }, 
    {
      "op": "dot", 
      "name": "dot40", 
      "inputs": [[3, 0, 0], [384, 0, 0]]
    }, 
    {
      "op": "null", 
      "name": "fullyconnected41_weight", 
      "attrs": {
        "flatten": "False", 
        "num_hidden": "32"
      }, 
      "inputs": []
    }, 
    {
      "op": "null", 
      "name": "fullyconnected41_bias", 
      "attrs": {
        "flatten": "False", 
        "num_hidden": "32"
      }, 
      "inputs": []
    }, 
    {
      "op": "FullyConnected", 
      "name": "fullyconnected41", 
      "attrs": {
        "flatten": "False", 
        "num_hidden": "32"
      }, 
      "inputs": [[387, 0, 0], [388, 0, 0], [389, 0, 0]]
    }, 
    {
      "op": "Activation", 
      "name": "activation41", 
      "attrs": {"act_type": "relu"}, 
      "inputs": [[390, 0, 0]]
    }, 
    {
      "op": "slice", 
      "name": "slice54", 
      "attrs": {
        "begin": "(45, None, None)", 
        "end": "(90, None, None)"
      }, 
      "inputs": [[391, 0, 0]]
    }, 
    {
      "op": "expand_dims", 
      "name": "expand_dims53", 
      "attrs": {"axis": "0"}, 
      "inputs": [[392, 0, 0]]
    }, 
    {
      "op": "dot", 
      "name": "dot41", 
      "inputs": [[3, 0, 0], [391, 0, 0]]
    }, 
    {
      "op": "null", 
      "name": "fullyconnected42_weight", 
      "attrs": {
        "flatten": "False", 
        "num_hidden": "32"
      }, 
      "inputs": []
    }, 
    {
      "op": "null", 
      "name": "fullyconnected42_bias", 
      "attrs": {
        "flatten": "False", 
        "num_hidden": "32"
      }, 
      "inputs": []
    }, 
    {
      "op": "FullyConnected", 
      "name": "fullyconnected42", 
      "attrs": {
        "flatten": "False", 
        "num_hidden": "32"
      }, 
      "inputs": [[394, 0, 0], [395, 0, 0], [396, 0, 0]]
    }, 
    {
      "op": "Activation", 
      "name": "activation42", 
      "attrs": {"act_type": "relu"}, 
      "inputs": [[397, 0, 0]]
    }, 
    {
      "op": "slice", 
      "name": "slice55", 
      "attrs": {
        "begin": "(45, None, None)", 
        "end": "(90, None, None)"
      }, 
      "inputs": [[398, 0, 0]]
    }, 
    {
      "op": "expand_dims", 
      "name": "expand_dims54", 
      "attrs": {"axis": "0"}, 
      "inputs": [[399, 0, 0]]
    }, 
    {
      "op": "Concat", 
      "name": "concat13", 
      "attrs": {
        "dim": "0", 
        "num_args": "3"
      }, 
      "inputs": [[386, 0, 0], [393, 0, 0], [400, 0, 0]]
    }, 
    {
      "op": "max", 
      "name": "max13", 
      "attrs": {"axis": "0"}, 
      "inputs": [[401, 0, 0]]
    }, 
    {
      "op": "SwapAxis", 
      "name": "swapaxes13", 
      "attrs": {
        "dim1": "0", 
        "dim2": "1"
      }, 
      "inputs": [[402, 0, 0]]
    }, 
    {
      "op": "expand_dims", 
      "name": "expand_dims55", 
      "attrs": {"axis": "1"}, 
      "inputs": [[403, 0, 0]]
    }, 
    {
      "op": "slice", 
      "name": "slice56", 
      "attrs": {
        "begin": "(None, 14, None, None)", 
        "end": "(None, 18, None, None)"
      }, 
      "inputs": [[12, 0, 0]]
    }, 
    {
      "op": "Reshape", 
      "name": "reshape14", 
      "attrs": {"shape": "(-1, 180, 32)"}, 
      "inputs": [[405, 0, 0]]
    }, 
    {
      "op": "transpose", 
      "name": "transpose16", 
      "attrs": {"axes": "(1, 0, 2)"}, 
      "inputs": [[406, 0, 0]]
    }, 
    {
      "op": "dot", 
      "name": "dot42", 
      "inputs": [[3, 0, 0], [407, 0, 0]]
    }, 
    {
      "op": "null", 
      "name": "fullyconnected43_weight", 
      "attrs": {
        "flatten": "False", 
        "num_hidden": "32"
      }, 
      "inputs": []
    }, 
    {
      "op": "null", 
      "name": "fullyconnected43_bias", 
      "attrs": {
        "flatten": "False", 
        "num_hidden": "32"
      }, 
      "inputs": []
    }, 
    {
      "op": "FullyConnected", 
      "name": "fullyconnected43", 
      "attrs": {
        "flatten": "False", 
        "num_hidden": "32"
      }, 
      "inputs": [[408, 0, 0], [409, 0, 0], [410, 0, 0]]
    }, 
    {
      "op": "Activation", 
      "name": "activation43", 
      "attrs": {"act_type": "relu"}, 
      "inputs": [[411, 0, 0]]
    }, 
    {
      "op": "slice", 
      "name": "slice57", 
      "attrs": {
        "begin": "(45, None, None)", 
        "end": "(90, None, None)"
      }, 
      "inputs": [[412, 0, 0]]
    }, 
    {
      "op": "expand_dims", 
      "name": "expand_dims56", 
      "attrs": {"axis": "0"}, 
      "inputs": [[413, 0, 0]]
    }, 
    {
      "op": "dot", 
      "name": "dot43", 
      "inputs": [[3, 0, 0], [412, 0, 0]]
    }, 
    {
      "op": "null", 
      "name": "fullyconnected44_weight", 
      "attrs": {
        "flatten": "False", 
        "num_hidden": "32"
      }, 
      "inputs": []
    }, 
    {
      "op": "null", 
      "name": "fullyconnected44_bias", 
      "attrs": {
        "flatten": "False", 
        "num_hidden": "32"
      }, 
      "inputs": []
    }, 
    {
      "op": "FullyConnected", 
      "name": "fullyconnected44", 
      "attrs": {
        "flatten": "False", 
        "num_hidden": "32"
      }, 
      "inputs": [[415, 0, 0], [416, 0, 0], [417, 0, 0]]
    }, 
    {
      "op": "Activation", 
      "name": "activation44", 
      "attrs": {"act_type": "relu"}, 
      "inputs": [[418, 0, 0]]
    }, 
    {
      "op": "slice", 
      "name": "slice58", 
      "attrs": {
        "begin": "(45, None, None)", 
        "end": "(90, None, None)"
      }, 
      "inputs": [[419, 0, 0]]
    }, 
    {
      "op": "expand_dims", 
      "name": "expand_dims57", 
      "attrs": {"axis": "0"}, 
      "inputs": [[420, 0, 0]]
    }, 
    {
      "op": "dot", 
      "name": "dot44", 
      "inputs": [[3, 0, 0], [419, 0, 0]]
    }, 
    {
      "op": "null", 
      "name": "fullyconnected45_weight", 
      "attrs": {
        "flatten": "False", 
        "num_hidden": "32"
      }, 
      "inputs": []
    }, 
    {
      "op": "null", 
      "name": "fullyconnected45_bias", 
      "attrs": {
        "flatten": "False", 
        "num_hidden": "32"
      }, 
      "inputs": []
    }, 
    {
      "op": "FullyConnected", 
      "name": "fullyconnected45", 
      "attrs": {
        "flatten": "False", 
        "num_hidden": "32"
      }, 
      "inputs": [[422, 0, 0], [423, 0, 0], [424, 0, 0]]
    }, 
    {
      "op": "Activation", 
      "name": "activation45", 
      "attrs": {"act_type": "relu"}, 
      "inputs": [[425, 0, 0]]
    }, 
    {
      "op": "slice", 
      "name": "slice59", 
      "attrs": {
        "begin": "(45, None, None)", 
        "end": "(90, None, None)"
      }, 
      "inputs": [[426, 0, 0]]
    }, 
    {
      "op": "expand_dims", 
      "name": "expand_dims58", 
      "attrs": {"axis": "0"}, 
      "inputs": [[427, 0, 0]]
    }, 
    {
      "op": "Concat", 
      "name": "concat14", 
      "attrs": {
        "dim": "0", 
        "num_args": "3"
      }, 
      "inputs": [[414, 0, 0], [421, 0, 0], [428, 0, 0]]
    }, 
    {
      "op": "max", 
      "name": "max14", 
      "attrs": {"axis": "0"}, 
      "inputs": [[429, 0, 0]]
    }, 
    {
      "op": "SwapAxis", 
      "name": "swapaxes14", 
      "attrs": {
        "dim1": "0", 
        "dim2": "1"
      }, 
      "inputs": [[430, 0, 0]]
    }, 
    {
      "op": "expand_dims", 
      "name": "expand_dims59", 
      "attrs": {"axis": "1"}, 
      "inputs": [[431, 0, 0]]
    }, 
    {
      "op": "slice", 
      "name": "slice60", 
      "attrs": {
        "begin": "(None, 15, None, None)", 
        "end": "(None, 19, None, None)"
      }, 
      "inputs": [[12, 0, 0]]
    }, 
    {
      "op": "Reshape", 
      "name": "reshape15", 
      "attrs": {"shape": "(-1, 180, 32)"}, 
      "inputs": [[433, 0, 0]]
    }, 
    {
      "op": "transpose", 
      "name": "transpose17", 
      "attrs": {"axes": "(1, 0, 2)"}, 
      "inputs": [[434, 0, 0]]
    }, 
    {
      "op": "dot", 
      "name": "dot45", 
      "inputs": [[3, 0, 0], [435, 0, 0]]
    }, 
    {
      "op": "null", 
      "name": "fullyconnected46_weight", 
      "attrs": {
        "flatten": "False", 
        "num_hidden": "32"
      }, 
      "inputs": []
    }, 
    {
      "op": "null", 
      "name": "fullyconnected46_bias", 
      "attrs": {
        "flatten": "False", 
        "num_hidden": "32"
      }, 
      "inputs": []
    }, 
    {
      "op": "FullyConnected", 
      "name": "fullyconnected46", 
      "attrs": {
        "flatten": "False", 
        "num_hidden": "32"
      }, 
      "inputs": [[436, 0, 0], [437, 0, 0], [438, 0, 0]]
    }, 
    {
      "op": "Activation", 
      "name": "activation46", 
      "attrs": {"act_type": "relu"}, 
      "inputs": [[439, 0, 0]]
    }, 
    {
      "op": "slice", 
      "name": "slice61", 
      "attrs": {
        "begin": "(45, None, None)", 
        "end": "(90, None, None)"
      }, 
      "inputs": [[440, 0, 0]]
    }, 
    {
      "op": "expand_dims", 
      "name": "expand_dims60", 
      "attrs": {"axis": "0"}, 
      "inputs": [[441, 0, 0]]
    }, 
    {
      "op": "dot", 
      "name": "dot46", 
      "inputs": [[3, 0, 0], [440, 0, 0]]
    }, 
    {
      "op": "null", 
      "name": "fullyconnected47_weight", 
      "attrs": {
        "flatten": "False", 
        "num_hidden": "32"
      }, 
      "inputs": []
    }, 
    {
      "op": "null", 
      "name": "fullyconnected47_bias", 
      "attrs": {
        "flatten": "False", 
        "num_hidden": "32"
      }, 
      "inputs": []
    }, 
    {
      "op": "FullyConnected", 
      "name": "fullyconnected47", 
      "attrs": {
        "flatten": "False", 
        "num_hidden": "32"
      }, 
      "inputs": [[443, 0, 0], [444, 0, 0], [445, 0, 0]]
    }, 
    {
      "op": "Activation", 
      "name": "activation47", 
      "attrs": {"act_type": "relu"}, 
      "inputs": [[446, 0, 0]]
    }, 
    {
      "op": "slice", 
      "name": "slice62", 
      "attrs": {
        "begin": "(45, None, None)", 
        "end": "(90, None, None)"
      }, 
      "inputs": [[447, 0, 0]]
    }, 
    {
      "op": "expand_dims", 
      "name": "expand_dims61", 
      "attrs": {"axis": "0"}, 
      "inputs": [[448, 0, 0]]
    }, 
    {
      "op": "dot", 
      "name": "dot47", 
      "inputs": [[3, 0, 0], [447, 0, 0]]
    }, 
    {
      "op": "null", 
      "name": "fullyconnected48_weight", 
      "attrs": {
        "flatten": "False", 
        "num_hidden": "32"
      }, 
      "inputs": []
    }, 
    {
      "op": "null", 
      "name": "fullyconnected48_bias", 
      "attrs": {
        "flatten": "False", 
        "num_hidden": "32"
      }, 
      "inputs": []
    }, 
    {
      "op": "FullyConnected", 
      "name": "fullyconnected48", 
      "attrs": {
        "flatten": "False", 
        "num_hidden": "32"
      }, 
      "inputs": [[450, 0, 0], [451, 0, 0], [452, 0, 0]]
    }, 
    {
      "op": "Activation", 
      "name": "activation48", 
      "attrs": {"act_type": "relu"}, 
      "inputs": [[453, 0, 0]]
    }, 
    {
      "op": "slice", 
      "name": "slice63", 
      "attrs": {
        "begin": "(45, None, None)", 
        "end": "(90, None, None)"
      }, 
      "inputs": [[454, 0, 0]]
    }, 
    {
      "op": "expand_dims", 
      "name": "expand_dims62", 
      "attrs": {"axis": "0"}, 
      "inputs": [[455, 0, 0]]
    }, 
    {
      "op": "Concat", 
      "name": "concat15", 
      "attrs": {
        "dim": "0", 
        "num_args": "3"
      }, 
      "inputs": [[442, 0, 0], [449, 0, 0], [456, 0, 0]]
    }, 
    {
      "op": "max", 
      "name": "max15", 
      "attrs": {"axis": "0"}, 
      "inputs": [[457, 0, 0]]
    }, 
    {
      "op": "SwapAxis", 
      "name": "swapaxes15", 
      "attrs": {
        "dim1": "0", 
        "dim2": "1"
      }, 
      "inputs": [[458, 0, 0]]
    }, 
    {
      "op": "expand_dims", 
      "name": "expand_dims63", 
      "attrs": {"axis": "1"}, 
      "inputs": [[459, 0, 0]]
    }, 
    {
      "op": "slice", 
      "name": "slice64", 
      "attrs": {
        "begin": "(None, 16, None, None)", 
        "end": "(None, 20, None, None)"
      }, 
      "inputs": [[12, 0, 0]]
    }, 
    {
      "op": "Reshape", 
      "name": "reshape16", 
      "attrs": {"shape": "(-1, 180, 32)"}, 
      "inputs": [[461, 0, 0]]
    }, 
    {
      "op": "transpose", 
      "name": "transpose18", 
      "attrs": {"axes": "(1, 0, 2)"}, 
      "inputs": [[462, 0, 0]]
    }, 
    {
      "op": "dot", 
      "name": "dot48", 
      "inputs": [[3, 0, 0], [463, 0, 0]]
    }, 
    {
      "op": "null", 
      "name": "fullyconnected49_weight", 
      "attrs": {
        "flatten": "False", 
        "num_hidden": "32"
      }, 
      "inputs": []
    }, 
    {
      "op": "null", 
      "name": "fullyconnected49_bias", 
      "attrs": {
        "flatten": "False", 
        "num_hidden": "32"
      }, 
      "inputs": []
    }, 
    {
      "op": "FullyConnected", 
      "name": "fullyconnected49", 
      "attrs": {
        "flatten": "False", 
        "num_hidden": "32"
      }, 
      "inputs": [[464, 0, 0], [465, 0, 0], [466, 0, 0]]
    }, 
    {
      "op": "Activation", 
      "name": "activation49", 
      "attrs": {"act_type": "relu"}, 
      "inputs": [[467, 0, 0]]
    }, 
    {
      "op": "slice", 
      "name": "slice65", 
      "attrs": {
        "begin": "(45, None, None)", 
        "end": "(90, None, None)"
      }, 
      "inputs": [[468, 0, 0]]
    }, 
    {
      "op": "expand_dims", 
      "name": "expand_dims64", 
      "attrs": {"axis": "0"}, 
      "inputs": [[469, 0, 0]]
    }, 
    {
      "op": "dot", 
      "name": "dot49", 
      "inputs": [[3, 0, 0], [468, 0, 0]]
    }, 
    {
      "op": "null", 
      "name": "fullyconnected50_weight", 
      "attrs": {
        "flatten": "False", 
        "num_hidden": "32"
      }, 
      "inputs": []
    }, 
    {
      "op": "null", 
      "name": "fullyconnected50_bias", 
      "attrs": {
        "flatten": "False", 
        "num_hidden": "32"
      }, 
      "inputs": []
    }, 
    {
      "op": "FullyConnected", 
      "name": "fullyconnected50", 
      "attrs": {
        "flatten": "False", 
        "num_hidden": "32"
      }, 
      "inputs": [[471, 0, 0], [472, 0, 0], [473, 0, 0]]
    }, 
    {
      "op": "Activation", 
      "name": "activation50", 
      "attrs": {"act_type": "relu"}, 
      "inputs": [[474, 0, 0]]
    }, 
    {
      "op": "slice", 
      "name": "slice66", 
      "attrs": {
        "begin": "(45, None, None)", 
        "end": "(90, None, None)"
      }, 
      "inputs": [[475, 0, 0]]
    }, 
    {
      "op": "expand_dims", 
      "name": "expand_dims65", 
      "attrs": {"axis": "0"}, 
      "inputs": [[476, 0, 0]]
    }, 
    {
      "op": "dot", 
      "name": "dot50", 
      "inputs": [[3, 0, 0], [475, 0, 0]]
    }, 
    {
      "op": "null", 
      "name": "fullyconnected51_weight", 
      "attrs": {
        "flatten": "False", 
        "num_hidden": "32"
      }, 
      "inputs": []
    }, 
    {
      "op": "null", 
      "name": "fullyconnected51_bias", 
      "attrs": {
        "flatten": "False", 
        "num_hidden": "32"
      }, 
      "inputs": []
    }, 
    {
      "op": "FullyConnected", 
      "name": "fullyconnected51", 
      "attrs": {
        "flatten": "False", 
        "num_hidden": "32"
      }, 
      "inputs": [[478, 0, 0], [479, 0, 0], [480, 0, 0]]
    }, 
    {
      "op": "Activation", 
      "name": "activation51", 
      "attrs": {"act_type": "relu"}, 
      "inputs": [[481, 0, 0]]
    }, 
    {
      "op": "slice", 
      "name": "slice67", 
      "attrs": {
        "begin": "(45, None, None)", 
        "end": "(90, None, None)"
      }, 
      "inputs": [[482, 0, 0]]
    }, 
    {
      "op": "expand_dims", 
      "name": "expand_dims66", 
      "attrs": {"axis": "0"}, 
      "inputs": [[483, 0, 0]]
    }, 
    {
      "op": "Concat", 
      "name": "concat16", 
      "attrs": {
        "dim": "0", 
        "num_args": "3"
      }, 
      "inputs": [[470, 0, 0], [477, 0, 0], [484, 0, 0]]
    }, 
    {
      "op": "max", 
      "name": "max16", 
      "attrs": {"axis": "0"}, 
      "inputs": [[485, 0, 0]]
    }, 
    {
      "op": "SwapAxis", 
      "name": "swapaxes16", 
      "attrs": {
        "dim1": "0", 
        "dim2": "1"
      }, 
      "inputs": [[486, 0, 0]]
    }, 
    {
      "op": "expand_dims", 
      "name": "expand_dims67", 
      "attrs": {"axis": "1"}, 
      "inputs": [[487, 0, 0]]
    }, 
    {
      "op": "slice", 
      "name": "slice68", 
      "attrs": {
        "begin": "(None, 17, None, None)", 
        "end": "(None, 21, None, None)"
      }, 
      "inputs": [[12, 0, 0]]
    }, 
    {
      "op": "Reshape", 
      "name": "reshape17", 
      "attrs": {"shape": "(-1, 180, 32)"}, 
      "inputs": [[489, 0, 0]]
    }, 
    {
      "op": "transpose", 
      "name": "transpose19", 
      "attrs": {"axes": "(1, 0, 2)"}, 
      "inputs": [[490, 0, 0]]
    }, 
    {
      "op": "dot", 
      "name": "dot51", 
      "inputs": [[3, 0, 0], [491, 0, 0]]
    }, 
    {
      "op": "null", 
      "name": "fullyconnected52_weight", 
      "attrs": {
        "flatten": "False", 
        "num_hidden": "32"
      }, 
      "inputs": []
    }, 
    {
      "op": "null", 
      "name": "fullyconnected52_bias", 
      "attrs": {
        "flatten": "False", 
        "num_hidden": "32"
      }, 
      "inputs": []
    }, 
    {
      "op": "FullyConnected", 
      "name": "fullyconnected52", 
      "attrs": {
        "flatten": "False", 
        "num_hidden": "32"
      }, 
      "inputs": [[492, 0, 0], [493, 0, 0], [494, 0, 0]]
    }, 
    {
      "op": "Activation", 
      "name": "activation52", 
      "attrs": {"act_type": "relu"}, 
      "inputs": [[495, 0, 0]]
    }, 
    {
      "op": "slice", 
      "name": "slice69", 
      "attrs": {
        "begin": "(45, None, None)", 
        "end": "(90, None, None)"
      }, 
      "inputs": [[496, 0, 0]]
    }, 
    {
      "op": "expand_dims", 
      "name": "expand_dims68", 
      "attrs": {"axis": "0"}, 
      "inputs": [[497, 0, 0]]
    }, 
    {
      "op": "dot", 
      "name": "dot52", 
      "inputs": [[3, 0, 0], [496, 0, 0]]
    }, 
    {
      "op": "null", 
      "name": "fullyconnected53_weight", 
      "attrs": {
        "flatten": "False", 
        "num_hidden": "32"
      }, 
      "inputs": []
    }, 
    {
      "op": "null", 
      "name": "fullyconnected53_bias", 
      "attrs": {
        "flatten": "False", 
        "num_hidden": "32"
      }, 
      "inputs": []
    }, 
    {
      "op": "FullyConnected", 
      "name": "fullyconnected53", 
      "attrs": {
        "flatten": "False", 
        "num_hidden": "32"
      }, 
      "inputs": [[499, 0, 0], [500, 0, 0], [501, 0, 0]]
    }, 
    {
      "op": "Activation", 
      "name": "activation53", 
      "attrs": {"act_type": "relu"}, 
      "inputs": [[502, 0, 0]]
    }, 
    {
      "op": "slice", 
      "name": "slice70", 
      "attrs": {
        "begin": "(45, None, None)", 
        "end": "(90, None, None)"
      }, 
      "inputs": [[503, 0, 0]]
    }, 
    {
      "op": "expand_dims", 
      "name": "expand_dims69", 
      "attrs": {"axis": "0"}, 
      "inputs": [[504, 0, 0]]
    }, 
    {
      "op": "dot", 
      "name": "dot53", 
      "inputs": [[3, 0, 0], [503, 0, 0]]
    }, 
    {
      "op": "null", 
      "name": "fullyconnected54_weight", 
      "attrs": {
        "flatten": "False", 
        "num_hidden": "32"
      }, 
      "inputs": []
    }, 
    {
      "op": "null", 
      "name": "fullyconnected54_bias", 
      "attrs": {
        "flatten": "False", 
        "num_hidden": "32"
      }, 
      "inputs": []
    }, 
    {
      "op": "FullyConnected", 
      "name": "fullyconnected54", 
      "attrs": {
        "flatten": "False", 
        "num_hidden": "32"
      }, 
      "inputs": [[506, 0, 0], [507, 0, 0], [508, 0, 0]]
    }, 
    {
      "op": "Activation", 
      "name": "activation54", 
      "attrs": {"act_type": "relu"}, 
      "inputs": [[509, 0, 0]]
    }, 
    {
      "op": "slice", 
      "name": "slice71", 
      "attrs": {
        "begin": "(45, None, None)", 
        "end": "(90, None, None)"
      }, 
      "inputs": [[510, 0, 0]]
    }, 
    {
      "op": "expand_dims", 
      "name": "expand_dims70", 
      "attrs": {"axis": "0"}, 
      "inputs": [[511, 0, 0]]
    }, 
    {
      "op": "Concat", 
      "name": "concat17", 
      "attrs": {
        "dim": "0", 
        "num_args": "3"
      }, 
      "inputs": [[498, 0, 0], [505, 0, 0], [512, 0, 0]]
    }, 
    {
      "op": "max", 
      "name": "max17", 
      "attrs": {"axis": "0"}, 
      "inputs": [[513, 0, 0]]
    }, 
    {
      "op": "SwapAxis", 
      "name": "swapaxes17", 
      "attrs": {
        "dim1": "0", 
        "dim2": "1"
      }, 
      "inputs": [[514, 0, 0]]
    }, 
    {
      "op": "expand_dims", 
      "name": "expand_dims71", 
      "attrs": {"axis": "1"}, 
      "inputs": [[515, 0, 0]]
    }, 
    {
      "op": "slice", 
      "name": "slice72", 
      "attrs": {
        "begin": "(None, 18, None, None)", 
        "end": "(None, 22, None, None)"
      }, 
      "inputs": [[12, 0, 0]]
    }, 
    {
      "op": "Reshape", 
      "name": "reshape18", 
      "attrs": {"shape": "(-1, 180, 32)"}, 
      "inputs": [[517, 0, 0]]
    }, 
    {
      "op": "transpose", 
      "name": "transpose20", 
      "attrs": {"axes": "(1, 0, 2)"}, 
      "inputs": [[518, 0, 0]]
    }, 
    {
      "op": "dot", 
      "name": "dot54", 
      "inputs": [[3, 0, 0], [519, 0, 0]]
    }, 
    {
      "op": "null", 
      "name": "fullyconnected55_weight", 
      "attrs": {
        "flatten": "False", 
        "num_hidden": "32"
      }, 
      "inputs": []
    }, 
    {
      "op": "null", 
      "name": "fullyconnected55_bias", 
      "attrs": {
        "flatten": "False", 
        "num_hidden": "32"
      }, 
      "inputs": []
    }, 
    {
      "op": "FullyConnected", 
      "name": "fullyconnected55", 
      "attrs": {
        "flatten": "False", 
        "num_hidden": "32"
      }, 
      "inputs": [[520, 0, 0], [521, 0, 0], [522, 0, 0]]
    }, 
    {
      "op": "Activation", 
      "name": "activation55", 
      "attrs": {"act_type": "relu"}, 
      "inputs": [[523, 0, 0]]
    }, 
    {
      "op": "slice", 
      "name": "slice73", 
      "attrs": {
        "begin": "(45, None, None)", 
        "end": "(90, None, None)"
      }, 
      "inputs": [[524, 0, 0]]
    }, 
    {
      "op": "expand_dims", 
      "name": "expand_dims72", 
      "attrs": {"axis": "0"}, 
      "inputs": [[525, 0, 0]]
    }, 
    {
      "op": "dot", 
      "name": "dot55", 
      "inputs": [[3, 0, 0], [524, 0, 0]]
    }, 
    {
      "op": "null", 
      "name": "fullyconnected56_weight", 
      "attrs": {
        "flatten": "False", 
        "num_hidden": "32"
      }, 
      "inputs": []
    }, 
    {
      "op": "null", 
      "name": "fullyconnected56_bias", 
      "attrs": {
        "flatten": "False", 
        "num_hidden": "32"
      }, 
      "inputs": []
    }, 
    {
      "op": "FullyConnected", 
      "name": "fullyconnected56", 
      "attrs": {
        "flatten": "False", 
        "num_hidden": "32"
      }, 
      "inputs": [[527, 0, 0], [528, 0, 0], [529, 0, 0]]
    }, 
    {
      "op": "Activation", 
      "name": "activation56", 
      "attrs": {"act_type": "relu"}, 
      "inputs": [[530, 0, 0]]
    }, 
    {
      "op": "slice", 
      "name": "slice74", 
      "attrs": {
        "begin": "(45, None, None)", 
        "end": "(90, None, None)"
      }, 
      "inputs": [[531, 0, 0]]
    }, 
    {
      "op": "expand_dims", 
      "name": "expand_dims73", 
      "attrs": {"axis": "0"}, 
      "inputs": [[532, 0, 0]]
    }, 
    {
      "op": "dot", 
      "name": "dot56", 
      "inputs": [[3, 0, 0], [531, 0, 0]]
    }, 
    {
      "op": "null", 
      "name": "fullyconnected57_weight", 
      "attrs": {
        "flatten": "False", 
        "num_hidden": "32"
      }, 
      "inputs": []
    }, 
    {
      "op": "null", 
      "name": "fullyconnected57_bias", 
      "attrs": {
        "flatten": "False", 
        "num_hidden": "32"
      }, 
      "inputs": []
    }, 
    {
      "op": "FullyConnected", 
      "name": "fullyconnected57", 
      "attrs": {
        "flatten": "False", 
        "num_hidden": "32"
      }, 
      "inputs": [[534, 0, 0], [535, 0, 0], [536, 0, 0]]
    }, 
    {
      "op": "Activation", 
      "name": "activation57", 
      "attrs": {"act_type": "relu"}, 
      "inputs": [[537, 0, 0]]
    }, 
    {
      "op": "slice", 
      "name": "slice75", 
      "attrs": {
        "begin": "(45, None, None)", 
        "end": "(90, None, None)"
      }, 
      "inputs": [[538, 0, 0]]
    }, 
    {
      "op": "expand_dims", 
      "name": "expand_dims74", 
      "attrs": {"axis": "0"}, 
      "inputs": [[539, 0, 0]]
    }, 
    {
      "op": "Concat", 
      "name": "concat18", 
      "attrs": {
        "dim": "0", 
        "num_args": "3"
      }, 
      "inputs": [[526, 0, 0], [533, 0, 0], [540, 0, 0]]
    }, 
    {
      "op": "max", 
      "name": "max18", 
      "attrs": {"axis": "0"}, 
      "inputs": [[541, 0, 0]]
    }, 
    {
      "op": "SwapAxis", 
      "name": "swapaxes18", 
      "attrs": {
        "dim1": "0", 
        "dim2": "1"
      }, 
      "inputs": [[542, 0, 0]]
    }, 
    {
      "op": "expand_dims", 
      "name": "expand_dims75", 
      "attrs": {"axis": "1"}, 
      "inputs": [[543, 0, 0]]
    }, 
    {
      "op": "slice", 
      "name": "slice76", 
      "attrs": {
        "begin": "(None, 19, None, None)", 
        "end": "(None, 23, None, None)"
      }, 
      "inputs": [[12, 0, 0]]
    }, 
    {
      "op": "Reshape", 
      "name": "reshape19", 
      "attrs": {"shape": "(-1, 180, 32)"}, 
      "inputs": [[545, 0, 0]]
    }, 
    {
      "op": "transpose", 
      "name": "transpose21", 
      "attrs": {"axes": "(1, 0, 2)"}, 
      "inputs": [[546, 0, 0]]
    }, 
    {
      "op": "dot", 
      "name": "dot57", 
      "inputs": [[3, 0, 0], [547, 0, 0]]
    }, 
    {
      "op": "null", 
      "name": "fullyconnected58_weight", 
      "attrs": {
        "flatten": "False", 
        "num_hidden": "32"
      }, 
      "inputs": []
    }, 
    {
      "op": "null", 
      "name": "fullyconnected58_bias", 
      "attrs": {
        "flatten": "False", 
        "num_hidden": "32"
      }, 
      "inputs": []
    }, 
    {
      "op": "FullyConnected", 
      "name": "fullyconnected58", 
      "attrs": {
        "flatten": "False", 
        "num_hidden": "32"
      }, 
      "inputs": [[548, 0, 0], [549, 0, 0], [550, 0, 0]]
    }, 
    {
      "op": "Activation", 
      "name": "activation58", 
      "attrs": {"act_type": "relu"}, 
      "inputs": [[551, 0, 0]]
    }, 
    {
      "op": "slice", 
      "name": "slice77", 
      "attrs": {
        "begin": "(45, None, None)", 
        "end": "(90, None, None)"
      }, 
      "inputs": [[552, 0, 0]]
    }, 
    {
      "op": "expand_dims", 
      "name": "expand_dims76", 
      "attrs": {"axis": "0"}, 
      "inputs": [[553, 0, 0]]
    }, 
    {
      "op": "dot", 
      "name": "dot58", 
      "inputs": [[3, 0, 0], [552, 0, 0]]
    }, 
    {
      "op": "null", 
      "name": "fullyconnected59_weight", 
      "attrs": {
        "flatten": "False", 
        "num_hidden": "32"
      }, 
      "inputs": []
    }, 
    {
      "op": "null", 
      "name": "fullyconnected59_bias", 
      "attrs": {
        "flatten": "False", 
        "num_hidden": "32"
      }, 
      "inputs": []
    }, 
    {
      "op": "FullyConnected", 
      "name": "fullyconnected59", 
      "attrs": {
        "flatten": "False", 
        "num_hidden": "32"
      }, 
      "inputs": [[555, 0, 0], [556, 0, 0], [557, 0, 0]]
    }, 
    {
      "op": "Activation", 
      "name": "activation59", 
      "attrs": {"act_type": "relu"}, 
      "inputs": [[558, 0, 0]]
    }, 
    {
      "op": "slice", 
      "name": "slice78", 
      "attrs": {
        "begin": "(45, None, None)", 
        "end": "(90, None, None)"
      }, 
      "inputs": [[559, 0, 0]]
    }, 
    {
      "op": "expand_dims", 
      "name": "expand_dims77", 
      "attrs": {"axis": "0"}, 
      "inputs": [[560, 0, 0]]
    }, 
    {
      "op": "dot", 
      "name": "dot59", 
      "inputs": [[3, 0, 0], [559, 0, 0]]
    }, 
    {
      "op": "null", 
      "name": "fullyconnected60_weight", 
      "attrs": {
        "flatten": "False", 
        "num_hidden": "32"
      }, 
      "inputs": []
    }, 
    {
      "op": "null", 
      "name": "fullyconnected60_bias", 
      "attrs": {
        "flatten": "False", 
        "num_hidden": "32"
      }, 
      "inputs": []
    }, 
    {
      "op": "FullyConnected", 
      "name": "fullyconnected60", 
      "attrs": {
        "flatten": "False", 
        "num_hidden": "32"
      }, 
      "inputs": [[562, 0, 0], [563, 0, 0], [564, 0, 0]]
    }, 
    {
      "op": "Activation", 
      "name": "activation60", 
      "attrs": {"act_type": "relu"}, 
      "inputs": [[565, 0, 0]]
    }, 
    {
      "op": "slice", 
      "name": "slice79", 
      "attrs": {
        "begin": "(45, None, None)", 
        "end": "(90, None, None)"
      }, 
      "inputs": [[566, 0, 0]]
    }, 
    {
      "op": "expand_dims", 
      "name": "expand_dims78", 
      "attrs": {"axis": "0"}, 
      "inputs": [[567, 0, 0]]
    }, 
    {
      "op": "Concat", 
      "name": "concat19", 
      "attrs": {
        "dim": "0", 
        "num_args": "3"
      }, 
      "inputs": [[554, 0, 0], [561, 0, 0], [568, 0, 0]]
    }, 
    {
      "op": "max", 
      "name": "max19", 
      "attrs": {"axis": "0"}, 
      "inputs": [[569, 0, 0]]
    }, 
    {
      "op": "SwapAxis", 
      "name": "swapaxes19", 
      "attrs": {
        "dim1": "0", 
        "dim2": "1"
      }, 
      "inputs": [[570, 0, 0]]
    }, 
    {
      "op": "expand_dims", 
      "name": "expand_dims79", 
      "attrs": {"axis": "1"}, 
      "inputs": [[571, 0, 0]]
    }, 
    {
      "op": "slice", 
      "name": "slice80", 
      "attrs": {
        "begin": "(None, 20, None, None)", 
        "end": "(None, 24, None, None)"
      }, 
      "inputs": [[12, 0, 0]]
    }, 
    {
      "op": "Reshape", 
      "name": "reshape20", 
      "attrs": {"shape": "(-1, 180, 32)"}, 
      "inputs": [[573, 0, 0]]
    }, 
    {
      "op": "transpose", 
      "name": "transpose22", 
      "attrs": {"axes": "(1, 0, 2)"}, 
      "inputs": [[574, 0, 0]]
    }, 
    {
      "op": "dot", 
      "name": "dot60", 
      "inputs": [[3, 0, 0], [575, 0, 0]]
    }, 
    {
      "op": "null", 
      "name": "fullyconnected61_weight", 
      "attrs": {
        "flatten": "False", 
        "num_hidden": "32"
      }, 
      "inputs": []
    }, 
    {
      "op": "null", 
      "name": "fullyconnected61_bias", 
      "attrs": {
        "flatten": "False", 
        "num_hidden": "32"
      }, 
      "inputs": []
    }, 
    {
      "op": "FullyConnected", 
      "name": "fullyconnected61", 
      "attrs": {
        "flatten": "False", 
        "num_hidden": "32"
      }, 
      "inputs": [[576, 0, 0], [577, 0, 0], [578, 0, 0]]
    }, 
    {
      "op": "Activation", 
      "name": "activation61", 
      "attrs": {"act_type": "relu"}, 
      "inputs": [[579, 0, 0]]
    }, 
    {
      "op": "slice", 
      "name": "slice81", 
      "attrs": {
        "begin": "(45, None, None)", 
        "end": "(90, None, None)"
      }, 
      "inputs": [[580, 0, 0]]
    }, 
    {
      "op": "expand_dims", 
      "name": "expand_dims80", 
      "attrs": {"axis": "0"}, 
      "inputs": [[581, 0, 0]]
    }, 
    {
      "op": "dot", 
      "name": "dot61", 
      "inputs": [[3, 0, 0], [580, 0, 0]]
    }, 
    {
      "op": "null", 
      "name": "fullyconnected62_weight", 
      "attrs": {
        "flatten": "False", 
        "num_hidden": "32"
      }, 
      "inputs": []
    }, 
    {
      "op": "null", 
      "name": "fullyconnected62_bias", 
      "attrs": {
        "flatten": "False", 
        "num_hidden": "32"
      }, 
      "inputs": []
    }, 
    {
      "op": "FullyConnected", 
      "name": "fullyconnected62", 
      "attrs": {
        "flatten": "False", 
        "num_hidden": "32"
      }, 
      "inputs": [[583, 0, 0], [584, 0, 0], [585, 0, 0]]
    }, 
    {
      "op": "Activation", 
      "name": "activation62", 
      "attrs": {"act_type": "relu"}, 
      "inputs": [[586, 0, 0]]
    }, 
    {
      "op": "slice", 
      "name": "slice82", 
      "attrs": {
        "begin": "(45, None, None)", 
        "end": "(90, None, None)"
      }, 
      "inputs": [[587, 0, 0]]
    }, 
    {
      "op": "expand_dims", 
      "name": "expand_dims81", 
      "attrs": {"axis": "0"}, 
      "inputs": [[588, 0, 0]]
    }, 
    {
      "op": "dot", 
      "name": "dot62", 
      "inputs": [[3, 0, 0], [587, 0, 0]]
    }, 
    {
      "op": "null", 
      "name": "fullyconnected63_weight", 
      "attrs": {
        "flatten": "False", 
        "num_hidden": "32"
      }, 
      "inputs": []
    }, 
    {
      "op": "null", 
      "name": "fullyconnected63_bias", 
      "attrs": {
        "flatten": "False", 
        "num_hidden": "32"
      }, 
      "inputs": []
    }, 
    {
      "op": "FullyConnected", 
      "name": "fullyconnected63", 
      "attrs": {
        "flatten": "False", 
        "num_hidden": "32"
      }, 
      "inputs": [[590, 0, 0], [591, 0, 0], [592, 0, 0]]
    }, 
    {
      "op": "Activation", 
      "name": "activation63", 
      "attrs": {"act_type": "relu"}, 
      "inputs": [[593, 0, 0]]
    }, 
    {
      "op": "slice", 
      "name": "slice83", 
      "attrs": {
        "begin": "(45, None, None)", 
        "end": "(90, None, None)"
      }, 
      "inputs": [[594, 0, 0]]
    }, 
    {
      "op": "expand_dims", 
      "name": "expand_dims82", 
      "attrs": {"axis": "0"}, 
      "inputs": [[595, 0, 0]]
    }, 
    {
      "op": "Concat", 
      "name": "concat20", 
      "attrs": {
        "dim": "0", 
        "num_args": "3"
      }, 
      "inputs": [[582, 0, 0], [589, 0, 0], [596, 0, 0]]
    }, 
    {
      "op": "max", 
      "name": "max20", 
      "attrs": {"axis": "0"}, 
      "inputs": [[597, 0, 0]]
    }, 
    {
      "op": "SwapAxis", 
      "name": "swapaxes20", 
      "attrs": {
        "dim1": "0", 
        "dim2": "1"
      }, 
      "inputs": [[598, 0, 0]]
    }, 
    {
      "op": "expand_dims", 
      "name": "expand_dims83", 
      "attrs": {"axis": "1"}, 
      "inputs": [[599, 0, 0]]
    }, 
    {
      "op": "Concat", 
      "name": "concat21", 
      "attrs": {
        "dim": "1", 
        "num_args": "21"
      }, 
      "inputs": [
        [40, 0, 0], 
        [68, 0, 0], 
        [96, 0, 0], 
        [124, 0, 0], 
        [152, 0, 0], 
        [180, 0, 0], 
        [208, 0, 0], 
        [236, 0, 0], 
        [264, 0, 0], 
        [292, 0, 0], 
        [320, 0, 0], 
        [348, 0, 0], 
        [376, 0, 0], 
        [404, 0, 0], 
        [432, 0, 0], 
        [460, 0, 0], 
        [488, 0, 0], 
        [516, 0, 0], 
        [544, 0, 0], 
        [572, 0, 0], 
        [600, 0, 0]
      ]
    }, 
    {
      "op": "transpose", 
      "name": "transpose0", 
      "attrs": {"axes": "(0, 3, 2, 1)"}, 
      "inputs": [[12, 0, 0]]
    }, 
    {
      "op": "null", 
      "name": "convolution0_weight", 
      "attrs": {
        "dilate": "(1, 3)", 
        "kernel": "(1, 2)", 
        "num_filter": "32", 
        "stride": "(1, 1)"
      }, 
      "inputs": []
    }, 
    {
      "op": "null", 
      "name": "convolution0_bias", 
      "attrs": {
        "dilate": "(1, 3)", 
        "kernel": "(1, 2)", 
        "num_filter": "32", 
        "stride": "(1, 1)"
      }, 
      "inputs": []
    }, 
    {
      "op": "Convolution", 
      "name": "convolution0", 
      "attrs": {
        "dilate": "(1, 3)", 
        "kernel": "(1, 2)", 
        "num_filter": "32", 
        "stride": "(1, 1)"
      }, 
      "inputs": [[602, 0, 0], [603, 0, 0], [604, 0, 0]]
    }, 
    {
      "op": "sigmoid", 
      "name": "sigmoid0", 
      "inputs": [[605, 0, 0]]
    }, 
    {
      "op": "null", 
      "name": "convolution1_weight", 
      "attrs": {
        "dilate": "(1, 3)", 
        "kernel": "(1, 2)", 
        "num_filter": "32", 
        "stride": "(1, 1)"
      }, 
      "inputs": []
    }, 
    {
      "op": "null", 
      "name": "convolution1_bias", 
      "attrs": {
        "dilate": "(1, 3)", 
        "kernel": "(1, 2)", 
        "num_filter": "32", 
        "stride": "(1, 1)"
      }, 
      "inputs": []
    }, 
    {
      "op": "Convolution", 
      "name": "convolution1", 
      "attrs": {
        "dilate": "(1, 3)", 
        "kernel": "(1, 2)", 
        "num_filter": "32", 
        "stride": "(1, 1)"
      }, 
      "inputs": [[602, 0, 0], [607, 0, 0], [608, 0, 0]]
    }, 
    {
      "op": "tanh", 
      "name": "tanh0", 
      "inputs": [[609, 0, 0]]
    }, 
    {
      "op": "elemwise_mul", 
      "name": "_mul1", 
      "inputs": [[606, 0, 0], [610, 0, 0]]
    }, 
    {
      "op": "transpose", 
      "name": "transpose1", 
      "attrs": {"axes": "(0, 3, 2, 1)"}, 
      "inputs": [[611, 0, 0]]
    }, 
    {
      "op": "elemwise_add", 
      "name": "_plus0", 
      "inputs": [[601, 0, 0], [612, 0, 0]]
    }, 
    {
      "op": "null", 
      "name": "_stsgcl_1_emb_t_emb", 
      "attrs": {
        "__init__": "[\"xavier\", {\"rnd_type\": \"uniform\", \"factor_type\": \"avg\", \"magnitude\": 0.0003}]", 
        "__shape__": "(1, 21, 1, 32)"
      }, 
      "inputs": []
    }, 
    {
      "op": "broadcast_add", 
      "name": "broadcast_add2", 
      "inputs": [[613, 0, 0], [614, 0, 0]]
    }, 
    {
      "op": "null", 
      "name": "_stsgcl_1_emb_v_emb", 
      "attrs": {
        "__init__": "[\"xavier\", {\"rnd_type\": \"uniform\", \"factor_type\": \"avg\", \"magnitude\": 0.0003}]", 
        "__shape__": "(1, 1, 45, 32)"
      }, 
      "inputs": []
    }, 
    {
      "op": "broadcast_add", 
      "name": "broadcast_add3", 
      "inputs": [[615, 0, 0], [616, 0, 0]]
    }, 
    {
      "op": "slice", 
      "name": "slice84", 
      "attrs": {
        "begin": "(None, 0, None, None)", 
        "end": "(None, 4, None, None)"
      }, 
      "inputs": [[617, 0, 0]]
    }, 
    {
      "op": "Reshape", 
      "name": "reshape21", 
      "attrs": {"shape": "(-1, 180, 32)"}, 
      "inputs": [[618, 0, 0]]
    }, 
    {
      "op": "transpose", 
      "name": "transpose25", 
      "attrs": {"axes": "(1, 0, 2)"}, 
      "inputs": [[619, 0, 0]]
    }, 
    {
      "op": "dot", 
      "name": "dot63", 
      "inputs": [[3, 0, 0], [620, 0, 0]]
    }, 
    {
      "op": "null", 
      "name": "fullyconnected64_weight", 
      "attrs": {
        "flatten": "False", 
        "num_hidden": "32"
      }, 
      "inputs": []
    }, 
    {
      "op": "null", 
      "name": "fullyconnected64_bias", 
      "attrs": {
        "flatten": "False", 
        "num_hidden": "32"
      }, 
      "inputs": []
    }, 
    {
      "op": "FullyConnected", 
      "name": "fullyconnected64", 
      "attrs": {
        "flatten": "False", 
        "num_hidden": "32"
      }, 
      "inputs": [[621, 0, 0], [622, 0, 0], [623, 0, 0]]
    }, 
    {
      "op": "Activation", 
      "name": "activation64", 
      "attrs": {"act_type": "relu"}, 
      "inputs": [[624, 0, 0]]
    }, 
    {
      "op": "slice", 
      "name": "slice85", 
      "attrs": {
        "begin": "(45, None, None)", 
        "end": "(90, None, None)"
      }, 
      "inputs": [[625, 0, 0]]
    }, 
    {
      "op": "expand_dims", 
      "name": "expand_dims84", 
      "attrs": {"axis": "0"}, 
      "inputs": [[626, 0, 0]]
    }, 
    {
      "op": "dot", 
      "name": "dot64", 
      "inputs": [[3, 0, 0], [625, 0, 0]]
    }, 
    {
      "op": "null", 
      "name": "fullyconnected65_weight", 
      "attrs": {
        "flatten": "False", 
        "num_hidden": "32"
      }, 
      "inputs": []
    }, 
    {
      "op": "null", 
      "name": "fullyconnected65_bias", 
      "attrs": {
        "flatten": "False", 
        "num_hidden": "32"
      }, 
      "inputs": []
    }, 
    {
      "op": "FullyConnected", 
      "name": "fullyconnected65", 
      "attrs": {
        "flatten": "False", 
        "num_hidden": "32"
      }, 
      "inputs": [[628, 0, 0], [629, 0, 0], [630, 0, 0]]
    }, 
    {
      "op": "Activation", 
      "name": "activation65", 
      "attrs": {"act_type": "relu"}, 
      "inputs": [[631, 0, 0]]
    }, 
    {
      "op": "slice", 
      "name": "slice86", 
      "attrs": {
        "begin": "(45, None, None)", 
        "end": "(90, None, None)"
      }, 
      "inputs": [[632, 0, 0]]
    }, 
    {
      "op": "expand_dims", 
      "name": "expand_dims85", 
      "attrs": {"axis": "0"}, 
      "inputs": [[633, 0, 0]]
    }, 
    {
      "op": "dot", 
      "name": "dot65", 
      "inputs": [[3, 0, 0], [632, 0, 0]]
    }, 
    {
      "op": "null", 
      "name": "fullyconnected66_weight", 
      "attrs": {
        "flatten": "False", 
        "num_hidden": "32"
      }, 
      "inputs": []
    }, 
    {
      "op": "null", 
      "name": "fullyconnected66_bias", 
      "attrs": {
        "flatten": "False", 
        "num_hidden": "32"
      }, 
      "inputs": []
    }, 
    {
      "op": "FullyConnected", 
      "name": "fullyconnected66", 
      "attrs": {
        "flatten": "False", 
        "num_hidden": "32"
      }, 
      "inputs": [[635, 0, 0], [636, 0, 0], [637, 0, 0]]
    }, 
    {
      "op": "Activation", 
      "name": "activation66", 
      "attrs": {"act_type": "relu"}, 
      "inputs": [[638, 0, 0]]
    }, 
    {
      "op": "slice", 
      "name": "slice87", 
      "attrs": {
        "begin": "(45, None, None)", 
        "end": "(90, None, None)"
      }, 
      "inputs": [[639, 0, 0]]
    }, 
    {
      "op": "expand_dims", 
      "name": "expand_dims86", 
      "attrs": {"axis": "0"}, 
      "inputs": [[640, 0, 0]]
    }, 
    {
      "op": "Concat", 
      "name": "concat22", 
      "attrs": {
        "dim": "0", 
        "num_args": "3"
      }, 
      "inputs": [[627, 0, 0], [634, 0, 0], [641, 0, 0]]
    }, 
    {
      "op": "max", 
      "name": "max21", 
      "attrs": {"axis": "0"}, 
      "inputs": [[642, 0, 0]]
    }, 
    {
      "op": "SwapAxis", 
      "name": "swapaxes21", 
      "attrs": {
        "dim1": "0", 
        "dim2": "1"
      }, 
      "inputs": [[643, 0, 0]]
    }, 
    {
      "op": "expand_dims", 
      "name": "expand_dims87", 
      "attrs": {"axis": "1"}, 
      "inputs": [[644, 0, 0]]
    }, 
    {
      "op": "slice", 
      "name": "slice88", 
      "attrs": {
        "begin": "(None, 1, None, None)", 
        "end": "(None, 5, None, None)"
      }, 
      "inputs": [[617, 0, 0]]
    }, 
    {
      "op": "Reshape", 
      "name": "reshape22", 
      "attrs": {"shape": "(-1, 180, 32)"}, 
      "inputs": [[646, 0, 0]]
    }, 
    {
      "op": "transpose", 
      "name": "transpose26", 
      "attrs": {"axes": "(1, 0, 2)"}, 
      "inputs": [[647, 0, 0]]
    }, 
    {
      "op": "dot", 
      "name": "dot66", 
      "inputs": [[3, 0, 0], [648, 0, 0]]
    }, 
    {
      "op": "null", 
      "name": "fullyconnected67_weight", 
      "attrs": {
        "flatten": "False", 
        "num_hidden": "32"
      }, 
      "inputs": []
    }, 
    {
      "op": "null", 
      "name": "fullyconnected67_bias", 
      "attrs": {
        "flatten": "False", 
        "num_hidden": "32"
      }, 
      "inputs": []
    }, 
    {
      "op": "FullyConnected", 
      "name": "fullyconnected67", 
      "attrs": {
        "flatten": "False", 
        "num_hidden": "32"
      }, 
      "inputs": [[649, 0, 0], [650, 0, 0], [651, 0, 0]]
    }, 
    {
      "op": "Activation", 
      "name": "activation67", 
      "attrs": {"act_type": "relu"}, 
      "inputs": [[652, 0, 0]]
    }, 
    {
      "op": "slice", 
      "name": "slice89", 
      "attrs": {
        "begin": "(45, None, None)", 
        "end": "(90, None, None)"
      }, 
      "inputs": [[653, 0, 0]]
    }, 
    {
      "op": "expand_dims", 
      "name": "expand_dims88", 
      "attrs": {"axis": "0"}, 
      "inputs": [[654, 0, 0]]
    }, 
    {
      "op": "dot", 
      "name": "dot67", 
      "inputs": [[3, 0, 0], [653, 0, 0]]
    }, 
    {
      "op": "null", 
      "name": "fullyconnected68_weight", 
      "attrs": {
        "flatten": "False", 
        "num_hidden": "32"
      }, 
      "inputs": []
    }, 
    {
      "op": "null", 
      "name": "fullyconnected68_bias", 
      "attrs": {
        "flatten": "False", 
        "num_hidden": "32"
      }, 
      "inputs": []
    }, 
    {
      "op": "FullyConnected", 
      "name": "fullyconnected68", 
      "attrs": {
        "flatten": "False", 
        "num_hidden": "32"
      }, 
      "inputs": [[656, 0, 0], [657, 0, 0], [658, 0, 0]]
    }, 
    {
      "op": "Activation", 
      "name": "activation68", 
      "attrs": {"act_type": "relu"}, 
      "inputs": [[659, 0, 0]]
    }, 
    {
      "op": "slice", 
      "name": "slice90", 
      "attrs": {
        "begin": "(45, None, None)", 
        "end": "(90, None, None)"
      }, 
      "inputs": [[660, 0, 0]]
    }, 
    {
      "op": "expand_dims", 
      "name": "expand_dims89", 
      "attrs": {"axis": "0"}, 
      "inputs": [[661, 0, 0]]
    }, 
    {
      "op": "dot", 
      "name": "dot68", 
      "inputs": [[3, 0, 0], [660, 0, 0]]
    }, 
    {
      "op": "null", 
      "name": "fullyconnected69_weight", 
      "attrs": {
        "flatten": "False", 
        "num_hidden": "32"
      }, 
      "inputs": []
    }, 
    {
      "op": "null", 
      "name": "fullyconnected69_bias", 
      "attrs": {
        "flatten": "False", 
        "num_hidden": "32"
      }, 
      "inputs": []
    }, 
    {
      "op": "FullyConnected", 
      "name": "fullyconnected69", 
      "attrs": {
        "flatten": "False", 
        "num_hidden": "32"
      }, 
      "inputs": [[663, 0, 0], [664, 0, 0], [665, 0, 0]]
    }, 
    {
      "op": "Activation", 
      "name": "activation69", 
      "attrs": {"act_type": "relu"}, 
      "inputs": [[666, 0, 0]]
    }, 
    {
      "op": "slice", 
      "name": "slice91", 
      "attrs": {
        "begin": "(45, None, None)", 
        "end": "(90, None, None)"
      }, 
      "inputs": [[667, 0, 0]]
    }, 
    {
      "op": "expand_dims", 
      "name": "expand_dims90", 
      "attrs": {"axis": "0"}, 
      "inputs": [[668, 0, 0]]
    }, 
    {
      "op": "Concat", 
      "name": "concat23", 
      "attrs": {
        "dim": "0", 
        "num_args": "3"
      }, 
      "inputs": [[655, 0, 0], [662, 0, 0], [669, 0, 0]]
    }, 
    {
      "op": "max", 
      "name": "max22", 
      "attrs": {"axis": "0"}, 
      "inputs": [[670, 0, 0]]
    }, 
    {
      "op": "SwapAxis", 
      "name": "swapaxes22", 
      "attrs": {
        "dim1": "0", 
        "dim2": "1"
      }, 
      "inputs": [[671, 0, 0]]
    }, 
    {
      "op": "expand_dims", 
      "name": "expand_dims91", 
      "attrs": {"axis": "1"}, 
      "inputs": [[672, 0, 0]]
    }, 
    {
      "op": "slice", 
      "name": "slice92", 
      "attrs": {
        "begin": "(None, 2, None, None)", 
        "end": "(None, 6, None, None)"
      }, 
      "inputs": [[617, 0, 0]]
    }, 
    {
      "op": "Reshape", 
      "name": "reshape23", 
      "attrs": {"shape": "(-1, 180, 32)"}, 
      "inputs": [[674, 0, 0]]
    }, 
    {
      "op": "transpose", 
      "name": "transpose27", 
      "attrs": {"axes": "(1, 0, 2)"}, 
      "inputs": [[675, 0, 0]]
    }, 
    {
      "op": "dot", 
      "name": "dot69", 
      "inputs": [[3, 0, 0], [676, 0, 0]]
    }, 
    {
      "op": "null", 
      "name": "fullyconnected70_weight", 
      "attrs": {
        "flatten": "False", 
        "num_hidden": "32"
      }, 
      "inputs": []
    }, 
    {
      "op": "null", 
      "name": "fullyconnected70_bias", 
      "attrs": {
        "flatten": "False", 
        "num_hidden": "32"
      }, 
      "inputs": []
    }, 
    {
      "op": "FullyConnected", 
      "name": "fullyconnected70", 
      "attrs": {
        "flatten": "False", 
        "num_hidden": "32"
      }, 
      "inputs": [[677, 0, 0], [678, 0, 0], [679, 0, 0]]
    }, 
    {
      "op": "Activation", 
      "name": "activation70", 
      "attrs": {"act_type": "relu"}, 
      "inputs": [[680, 0, 0]]
    }, 
    {
      "op": "slice", 
      "name": "slice93", 
      "attrs": {
        "begin": "(45, None, None)", 
        "end": "(90, None, None)"
      }, 
      "inputs": [[681, 0, 0]]
    }, 
    {
      "op": "expand_dims", 
      "name": "expand_dims92", 
      "attrs": {"axis": "0"}, 
      "inputs": [[682, 0, 0]]
    }, 
    {
      "op": "dot", 
      "name": "dot70", 
      "inputs": [[3, 0, 0], [681, 0, 0]]
    }, 
    {
      "op": "null", 
      "name": "fullyconnected71_weight", 
      "attrs": {
        "flatten": "False", 
        "num_hidden": "32"
      }, 
      "inputs": []
    }, 
    {
      "op": "null", 
      "name": "fullyconnected71_bias", 
      "attrs": {
        "flatten": "False", 
        "num_hidden": "32"
      }, 
      "inputs": []
    }, 
    {
      "op": "FullyConnected", 
      "name": "fullyconnected71", 
      "attrs": {
        "flatten": "False", 
        "num_hidden": "32"
      }, 
      "inputs": [[684, 0, 0], [685, 0, 0], [686, 0, 0]]
    }, 
    {
      "op": "Activation", 
      "name": "activation71", 
      "attrs": {"act_type": "relu"}, 
      "inputs": [[687, 0, 0]]
    }, 
    {
      "op": "slice", 
      "name": "slice94", 
      "attrs": {
        "begin": "(45, None, None)", 
        "end": "(90, None, None)"
      }, 
      "inputs": [[688, 0, 0]]
    }, 
    {
      "op": "expand_dims", 
      "name": "expand_dims93", 
      "attrs": {"axis": "0"}, 
      "inputs": [[689, 0, 0]]
    }, 
    {
      "op": "dot", 
      "name": "dot71", 
      "inputs": [[3, 0, 0], [688, 0, 0]]
    }, 
    {
      "op": "null", 
      "name": "fullyconnected72_weight", 
      "attrs": {
        "flatten": "False", 
        "num_hidden": "32"
      }, 
      "inputs": []
    }, 
    {
      "op": "null", 
      "name": "fullyconnected72_bias", 
      "attrs": {
        "flatten": "False", 
        "num_hidden": "32"
      }, 
      "inputs": []
    }, 
    {
      "op": "FullyConnected", 
      "name": "fullyconnected72", 
      "attrs": {
        "flatten": "False", 
        "num_hidden": "32"
      }, 
      "inputs": [[691, 0, 0], [692, 0, 0], [693, 0, 0]]
    }, 
    {
      "op": "Activation", 
      "name": "activation72", 
      "attrs": {"act_type": "relu"}, 
      "inputs": [[694, 0, 0]]
    }, 
    {
      "op": "slice", 
      "name": "slice95", 
      "attrs": {
        "begin": "(45, None, None)", 
        "end": "(90, None, None)"
      }, 
      "inputs": [[695, 0, 0]]
    }, 
    {
      "op": "expand_dims", 
      "name": "expand_dims94", 
      "attrs": {"axis": "0"}, 
      "inputs": [[696, 0, 0]]
    }, 
    {
      "op": "Concat", 
      "name": "concat24", 
      "attrs": {
        "dim": "0", 
        "num_args": "3"
      }, 
      "inputs": [[683, 0, 0], [690, 0, 0], [697, 0, 0]]
    }, 
    {
      "op": "max", 
      "name": "max23", 
      "attrs": {"axis": "0"}, 
      "inputs": [[698, 0, 0]]
    }, 
    {
      "op": "SwapAxis", 
      "name": "swapaxes23", 
      "attrs": {
        "dim1": "0", 
        "dim2": "1"
      }, 
      "inputs": [[699, 0, 0]]
    }, 
    {
      "op": "expand_dims", 
      "name": "expand_dims95", 
      "attrs": {"axis": "1"}, 
      "inputs": [[700, 0, 0]]
    }, 
    {
      "op": "slice", 
      "name": "slice96", 
      "attrs": {
        "begin": "(None, 3, None, None)", 
        "end": "(None, 7, None, None)"
      }, 
      "inputs": [[617, 0, 0]]
    }, 
    {
      "op": "Reshape", 
      "name": "reshape24", 
      "attrs": {"shape": "(-1, 180, 32)"}, 
      "inputs": [[702, 0, 0]]
    }, 
    {
      "op": "transpose", 
      "name": "transpose28", 
      "attrs": {"axes": "(1, 0, 2)"}, 
      "inputs": [[703, 0, 0]]
    }, 
    {
      "op": "dot", 
      "name": "dot72", 
      "inputs": [[3, 0, 0], [704, 0, 0]]
    }, 
    {
      "op": "null", 
      "name": "fullyconnected73_weight", 
      "attrs": {
        "flatten": "False", 
        "num_hidden": "32"
      }, 
      "inputs": []
    }, 
    {
      "op": "null", 
      "name": "fullyconnected73_bias", 
      "attrs": {
        "flatten": "False", 
        "num_hidden": "32"
      }, 
      "inputs": []
    }, 
    {
      "op": "FullyConnected", 
      "name": "fullyconnected73", 
      "attrs": {
        "flatten": "False", 
        "num_hidden": "32"
      }, 
      "inputs": [[705, 0, 0], [706, 0, 0], [707, 0, 0]]
    }, 
    {
      "op": "Activation", 
      "name": "activation73", 
      "attrs": {"act_type": "relu"}, 
      "inputs": [[708, 0, 0]]
    }, 
    {
      "op": "slice", 
      "name": "slice97", 
      "attrs": {
        "begin": "(45, None, None)", 
        "end": "(90, None, None)"
      }, 
      "inputs": [[709, 0, 0]]
    }, 
    {
      "op": "expand_dims", 
      "name": "expand_dims96", 
      "attrs": {"axis": "0"}, 
      "inputs": [[710, 0, 0]]
    }, 
    {
      "op": "dot", 
      "name": "dot73", 
      "inputs": [[3, 0, 0], [709, 0, 0]]
    }, 
    {
      "op": "null", 
      "name": "fullyconnected74_weight", 
      "attrs": {
        "flatten": "False", 
        "num_hidden": "32"
      }, 
      "inputs": []
    }, 
    {
      "op": "null", 
      "name": "fullyconnected74_bias", 
      "attrs": {
        "flatten": "False", 
        "num_hidden": "32"
      }, 
      "inputs": []
    }, 
    {
      "op": "FullyConnected", 
      "name": "fullyconnected74", 
      "attrs": {
        "flatten": "False", 
        "num_hidden": "32"
      }, 
      "inputs": [[712, 0, 0], [713, 0, 0], [714, 0, 0]]
    }, 
    {
      "op": "Activation", 
      "name": "activation74", 
      "attrs": {"act_type": "relu"}, 
      "inputs": [[715, 0, 0]]
    }, 
    {
      "op": "slice", 
      "name": "slice98", 
      "attrs": {
        "begin": "(45, None, None)", 
        "end": "(90, None, None)"
      }, 
      "inputs": [[716, 0, 0]]
    }, 
    {
      "op": "expand_dims", 
      "name": "expand_dims97", 
      "attrs": {"axis": "0"}, 
      "inputs": [[717, 0, 0]]
    }, 
    {
      "op": "dot", 
      "name": "dot74", 
      "inputs": [[3, 0, 0], [716, 0, 0]]
    }, 
    {
      "op": "null", 
      "name": "fullyconnected75_weight", 
      "attrs": {
        "flatten": "False", 
        "num_hidden": "32"
      }, 
      "inputs": []
    }, 
    {
      "op": "null", 
      "name": "fullyconnected75_bias", 
      "attrs": {
        "flatten": "False", 
        "num_hidden": "32"
      }, 
      "inputs": []
    }, 
    {
      "op": "FullyConnected", 
      "name": "fullyconnected75", 
      "attrs": {
        "flatten": "False", 
        "num_hidden": "32"
      }, 
      "inputs": [[719, 0, 0], [720, 0, 0], [721, 0, 0]]
    }, 
    {
      "op": "Activation", 
      "name": "activation75", 
      "attrs": {"act_type": "relu"}, 
      "inputs": [[722, 0, 0]]
    }, 
    {
      "op": "slice", 
      "name": "slice99", 
      "attrs": {
        "begin": "(45, None, None)", 
        "end": "(90, None, None)"
      }, 
      "inputs": [[723, 0, 0]]
    }, 
    {
      "op": "expand_dims", 
      "name": "expand_dims98", 
      "attrs": {"axis": "0"}, 
      "inputs": [[724, 0, 0]]
    }, 
    {
      "op": "Concat", 
      "name": "concat25", 
      "attrs": {
        "dim": "0", 
        "num_args": "3"
      }, 
      "inputs": [[711, 0, 0], [718, 0, 0], [725, 0, 0]]
    }, 
    {
      "op": "max", 
      "name": "max24", 
      "attrs": {"axis": "0"}, 
      "inputs": [[726, 0, 0]]
    }, 
    {
      "op": "SwapAxis", 
      "name": "swapaxes24", 
      "attrs": {
        "dim1": "0", 
        "dim2": "1"
      }, 
      "inputs": [[727, 0, 0]]
    }, 
    {
      "op": "expand_dims", 
      "name": "expand_dims99", 
      "attrs": {"axis": "1"}, 
      "inputs": [[728, 0, 0]]
    }, 
    {
      "op": "slice", 
      "name": "slice100", 
      "attrs": {
        "begin": "(None, 4, None, None)", 
        "end": "(None, 8, None, None)"
      }, 
      "inputs": [[617, 0, 0]]
    }, 
    {
      "op": "Reshape", 
      "name": "reshape25", 
      "attrs": {"shape": "(-1, 180, 32)"}, 
      "inputs": [[730, 0, 0]]
    }, 
    {
      "op": "transpose", 
      "name": "transpose29", 
      "attrs": {"axes": "(1, 0, 2)"}, 
      "inputs": [[731, 0, 0]]
    }, 
    {
      "op": "dot", 
      "name": "dot75", 
      "inputs": [[3, 0, 0], [732, 0, 0]]
    }, 
    {
      "op": "null", 
      "name": "fullyconnected76_weight", 
      "attrs": {
        "flatten": "False", 
        "num_hidden": "32"
      }, 
      "inputs": []
    }, 
    {
      "op": "null", 
      "name": "fullyconnected76_bias", 
      "attrs": {
        "flatten": "False", 
        "num_hidden": "32"
      }, 
      "inputs": []
    }, 
    {
      "op": "FullyConnected", 
      "name": "fullyconnected76", 
      "attrs": {
        "flatten": "False", 
        "num_hidden": "32"
      }, 
      "inputs": [[733, 0, 0], [734, 0, 0], [735, 0, 0]]
    }, 
    {
      "op": "Activation", 
      "name": "activation76", 
      "attrs": {"act_type": "relu"}, 
      "inputs": [[736, 0, 0]]
    }, 
    {
      "op": "slice", 
      "name": "slice101", 
      "attrs": {
        "begin": "(45, None, None)", 
        "end": "(90, None, None)"
      }, 
      "inputs": [[737, 0, 0]]
    }, 
    {
      "op": "expand_dims", 
      "name": "expand_dims100", 
      "attrs": {"axis": "0"}, 
      "inputs": [[738, 0, 0]]
    }, 
    {
      "op": "dot", 
      "name": "dot76", 
      "inputs": [[3, 0, 0], [737, 0, 0]]
    }, 
    {
      "op": "null", 
      "name": "fullyconnected77_weight", 
      "attrs": {
        "flatten": "False", 
        "num_hidden": "32"
      }, 
      "inputs": []
    }, 
    {
      "op": "null", 
      "name": "fullyconnected77_bias", 
      "attrs": {
        "flatten": "False", 
        "num_hidden": "32"
      }, 
      "inputs": []
    }, 
    {
      "op": "FullyConnected", 
      "name": "fullyconnected77", 
      "attrs": {
        "flatten": "False", 
        "num_hidden": "32"
      }, 
      "inputs": [[740, 0, 0], [741, 0, 0], [742, 0, 0]]
    }, 
    {
      "op": "Activation", 
      "name": "activation77", 
      "attrs": {"act_type": "relu"}, 
      "inputs": [[743, 0, 0]]
    }, 
    {
      "op": "slice", 
      "name": "slice102", 
      "attrs": {
        "begin": "(45, None, None)", 
        "end": "(90, None, None)"
      }, 
      "inputs": [[744, 0, 0]]
    }, 
    {
      "op": "expand_dims", 
      "name": "expand_dims101", 
      "attrs": {"axis": "0"}, 
      "inputs": [[745, 0, 0]]
    }, 
    {
      "op": "dot", 
      "name": "dot77", 
      "inputs": [[3, 0, 0], [744, 0, 0]]
    }, 
    {
      "op": "null", 
      "name": "fullyconnected78_weight", 
      "attrs": {
        "flatten": "False", 
        "num_hidden": "32"
      }, 
      "inputs": []
    }, 
    {
      "op": "null", 
      "name": "fullyconnected78_bias", 
      "attrs": {
        "flatten": "False", 
        "num_hidden": "32"
      }, 
      "inputs": []
    }, 
    {
      "op": "FullyConnected", 
      "name": "fullyconnected78", 
      "attrs": {
        "flatten": "False", 
        "num_hidden": "32"
      }, 
      "inputs": [[747, 0, 0], [748, 0, 0], [749, 0, 0]]
    }, 
    {
      "op": "Activation", 
      "name": "activation78", 
      "attrs": {"act_type": "relu"}, 
      "inputs": [[750, 0, 0]]
    }, 
    {
      "op": "slice", 
      "name": "slice103", 
      "attrs": {
        "begin": "(45, None, None)", 
        "end": "(90, None, None)"
      }, 
      "inputs": [[751, 0, 0]]
    }, 
    {
      "op": "expand_dims", 
      "name": "expand_dims102", 
      "attrs": {"axis": "0"}, 
      "inputs": [[752, 0, 0]]
    }, 
    {
      "op": "Concat", 
      "name": "concat26", 
      "attrs": {
        "dim": "0", 
        "num_args": "3"
      }, 
      "inputs": [[739, 0, 0], [746, 0, 0], [753, 0, 0]]
    }, 
    {
      "op": "max", 
      "name": "max25", 
      "attrs": {"axis": "0"}, 
      "inputs": [[754, 0, 0]]
    }, 
    {
      "op": "SwapAxis", 
      "name": "swapaxes25", 
      "attrs": {
        "dim1": "0", 
        "dim2": "1"
      }, 
      "inputs": [[755, 0, 0]]
    }, 
    {
      "op": "expand_dims", 
      "name": "expand_dims103", 
      "attrs": {"axis": "1"}, 
      "inputs": [[756, 0, 0]]
    }, 
    {
      "op": "slice", 
      "name": "slice104", 
      "attrs": {
        "begin": "(None, 5, None, None)", 
        "end": "(None, 9, None, None)"
      }, 
      "inputs": [[617, 0, 0]]
    }, 
    {
      "op": "Reshape", 
      "name": "reshape26", 
      "attrs": {"shape": "(-1, 180, 32)"}, 
      "inputs": [[758, 0, 0]]
    }, 
    {
      "op": "transpose", 
      "name": "transpose30", 
      "attrs": {"axes": "(1, 0, 2)"}, 
      "inputs": [[759, 0, 0]]
    }, 
    {
      "op": "dot", 
      "name": "dot78", 
      "inputs": [[3, 0, 0], [760, 0, 0]]
    }, 
    {
      "op": "null", 
      "name": "fullyconnected79_weight", 
      "attrs": {
        "flatten": "False", 
        "num_hidden": "32"
      }, 
      "inputs": []
    }, 
    {
      "op": "null", 
      "name": "fullyconnected79_bias", 
      "attrs": {
        "flatten": "False", 
        "num_hidden": "32"
      }, 
      "inputs": []
    }, 
    {
      "op": "FullyConnected", 
      "name": "fullyconnected79", 
      "attrs": {
        "flatten": "False", 
        "num_hidden": "32"
      }, 
      "inputs": [[761, 0, 0], [762, 0, 0], [763, 0, 0]]
    }, 
    {
      "op": "Activation", 
      "name": "activation79", 
      "attrs": {"act_type": "relu"}, 
      "inputs": [[764, 0, 0]]
    }, 
    {
      "op": "slice", 
      "name": "slice105", 
      "attrs": {
        "begin": "(45, None, None)", 
        "end": "(90, None, None)"
      }, 
      "inputs": [[765, 0, 0]]
    }, 
    {
      "op": "expand_dims", 
      "name": "expand_dims104", 
      "attrs": {"axis": "0"}, 
      "inputs": [[766, 0, 0]]
    }, 
    {
      "op": "dot", 
      "name": "dot79", 
      "inputs": [[3, 0, 0], [765, 0, 0]]
    }, 
    {
      "op": "null", 
      "name": "fullyconnected80_weight", 
      "attrs": {
        "flatten": "False", 
        "num_hidden": "32"
      }, 
      "inputs": []
    }, 
    {
      "op": "null", 
      "name": "fullyconnected80_bias", 
      "attrs": {
        "flatten": "False", 
        "num_hidden": "32"
      }, 
      "inputs": []
    }, 
    {
      "op": "FullyConnected", 
      "name": "fullyconnected80", 
      "attrs": {
        "flatten": "False", 
        "num_hidden": "32"
      }, 
      "inputs": [[768, 0, 0], [769, 0, 0], [770, 0, 0]]
    }, 
    {
      "op": "Activation", 
      "name": "activation80", 
      "attrs": {"act_type": "relu"}, 
      "inputs": [[771, 0, 0]]
    }, 
    {
      "op": "slice", 
      "name": "slice106", 
      "attrs": {
        "begin": "(45, None, None)", 
        "end": "(90, None, None)"
      }, 
      "inputs": [[772, 0, 0]]
    }, 
    {
      "op": "expand_dims", 
      "name": "expand_dims105", 
      "attrs": {"axis": "0"}, 
      "inputs": [[773, 0, 0]]
    }, 
    {
      "op": "dot", 
      "name": "dot80", 
      "inputs": [[3, 0, 0], [772, 0, 0]]
    }, 
    {
      "op": "null", 
      "name": "fullyconnected81_weight", 
      "attrs": {
        "flatten": "False", 
        "num_hidden": "32"
      }, 
      "inputs": []
    }, 
    {
      "op": "null", 
      "name": "fullyconnected81_bias", 
      "attrs": {
        "flatten": "False", 
        "num_hidden": "32"
      }, 
      "inputs": []
    }, 
    {
      "op": "FullyConnected", 
      "name": "fullyconnected81", 
      "attrs": {
        "flatten": "False", 
        "num_hidden": "32"
      }, 
      "inputs": [[775, 0, 0], [776, 0, 0], [777, 0, 0]]
    }, 
    {
      "op": "Activation", 
      "name": "activation81", 
      "attrs": {"act_type": "relu"}, 
      "inputs": [[778, 0, 0]]
    }, 
    {
      "op": "slice", 
      "name": "slice107", 
      "attrs": {
        "begin": "(45, None, None)", 
        "end": "(90, None, None)"
      }, 
      "inputs": [[779, 0, 0]]
    }, 
    {
      "op": "expand_dims", 
      "name": "expand_dims106", 
      "attrs": {"axis": "0"}, 
      "inputs": [[780, 0, 0]]
    }, 
    {
      "op": "Concat", 
      "name": "concat27", 
      "attrs": {
        "dim": "0", 
        "num_args": "3"
      }, 
      "inputs": [[767, 0, 0], [774, 0, 0], [781, 0, 0]]
    }, 
    {
      "op": "max", 
      "name": "max26", 
      "attrs": {"axis": "0"}, 
      "inputs": [[782, 0, 0]]
    }, 
    {
      "op": "SwapAxis", 
      "name": "swapaxes26", 
      "attrs": {
        "dim1": "0", 
        "dim2": "1"
      }, 
      "inputs": [[783, 0, 0]]
    }, 
    {
      "op": "expand_dims", 
      "name": "expand_dims107", 
      "attrs": {"axis": "1"}, 
      "inputs": [[784, 0, 0]]
    }, 
    {
      "op": "slice", 
      "name": "slice108", 
      "attrs": {
        "begin": "(None, 6, None, None)", 
        "end": "(None, 10, None, None)"
      }, 
      "inputs": [[617, 0, 0]]
    }, 
    {
      "op": "Reshape", 
      "name": "reshape27", 
      "attrs": {"shape": "(-1, 180, 32)"}, 
      "inputs": [[786, 0, 0]]
    }, 
    {
      "op": "transpose", 
      "name": "transpose31", 
      "attrs": {"axes": "(1, 0, 2)"}, 
      "inputs": [[787, 0, 0]]
    }, 
    {
      "op": "dot", 
      "name": "dot81", 
      "inputs": [[3, 0, 0], [788, 0, 0]]
    }, 
    {
      "op": "null", 
      "name": "fullyconnected82_weight", 
      "attrs": {
        "flatten": "False", 
        "num_hidden": "32"
      }, 
      "inputs": []
    }, 
    {
      "op": "null", 
      "name": "fullyconnected82_bias", 
      "attrs": {
        "flatten": "False", 
        "num_hidden": "32"
      }, 
      "inputs": []
    }, 
    {
      "op": "FullyConnected", 
      "name": "fullyconnected82", 
      "attrs": {
        "flatten": "False", 
        "num_hidden": "32"
      }, 
      "inputs": [[789, 0, 0], [790, 0, 0], [791, 0, 0]]
    }, 
    {
      "op": "Activation", 
      "name": "activation82", 
      "attrs": {"act_type": "relu"}, 
      "inputs": [[792, 0, 0]]
    }, 
    {
      "op": "slice", 
      "name": "slice109", 
      "attrs": {
        "begin": "(45, None, None)", 
        "end": "(90, None, None)"
      }, 
      "inputs": [[793, 0, 0]]
    }, 
    {
      "op": "expand_dims", 
      "name": "expand_dims108", 
      "attrs": {"axis": "0"}, 
      "inputs": [[794, 0, 0]]
    }, 
    {
      "op": "dot", 
      "name": "dot82", 
      "inputs": [[3, 0, 0], [793, 0, 0]]
    }, 
    {
      "op": "null", 
      "name": "fullyconnected83_weight", 
      "attrs": {
        "flatten": "False", 
        "num_hidden": "32"
      }, 
      "inputs": []
    }, 
    {
      "op": "null", 
      "name": "fullyconnected83_bias", 
      "attrs": {
        "flatten": "False", 
        "num_hidden": "32"
      }, 
      "inputs": []
    }, 
    {
      "op": "FullyConnected", 
      "name": "fullyconnected83", 
      "attrs": {
        "flatten": "False", 
        "num_hidden": "32"
      }, 
      "inputs": [[796, 0, 0], [797, 0, 0], [798, 0, 0]]
    }, 
    {
      "op": "Activation", 
      "name": "activation83", 
      "attrs": {"act_type": "relu"}, 
      "inputs": [[799, 0, 0]]
    }, 
    {
      "op": "slice", 
      "name": "slice110", 
      "attrs": {
        "begin": "(45, None, None)", 
        "end": "(90, None, None)"
      }, 
      "inputs": [[800, 0, 0]]
    }, 
    {
      "op": "expand_dims", 
      "name": "expand_dims109", 
      "attrs": {"axis": "0"}, 
      "inputs": [[801, 0, 0]]
    }, 
    {
      "op": "dot", 
      "name": "dot83", 
      "inputs": [[3, 0, 0], [800, 0, 0]]
    }, 
    {
      "op": "null", 
      "name": "fullyconnected84_weight", 
      "attrs": {
        "flatten": "False", 
        "num_hidden": "32"
      }, 
      "inputs": []
    }, 
    {
      "op": "null", 
      "name": "fullyconnected84_bias", 
      "attrs": {
        "flatten": "False", 
        "num_hidden": "32"
      }, 
      "inputs": []
    }, 
    {
      "op": "FullyConnected", 
      "name": "fullyconnected84", 
      "attrs": {
        "flatten": "False", 
        "num_hidden": "32"
      }, 
      "inputs": [[803, 0, 0], [804, 0, 0], [805, 0, 0]]
    }, 
    {
      "op": "Activation", 
      "name": "activation84", 
      "attrs": {"act_type": "relu"}, 
      "inputs": [[806, 0, 0]]
    }, 
    {
      "op": "slice", 
      "name": "slice111", 
      "attrs": {
        "begin": "(45, None, None)", 
        "end": "(90, None, None)"
      }, 
      "inputs": [[807, 0, 0]]
    }, 
    {
      "op": "expand_dims", 
      "name": "expand_dims110", 
      "attrs": {"axis": "0"}, 
      "inputs": [[808, 0, 0]]
    }, 
    {
      "op": "Concat", 
      "name": "concat28", 
      "attrs": {
        "dim": "0", 
        "num_args": "3"
      }, 
      "inputs": [[795, 0, 0], [802, 0, 0], [809, 0, 0]]
    }, 
    {
      "op": "max", 
      "name": "max27", 
      "attrs": {"axis": "0"}, 
      "inputs": [[810, 0, 0]]
    }, 
    {
      "op": "SwapAxis", 
      "name": "swapaxes27", 
      "attrs": {
        "dim1": "0", 
        "dim2": "1"
      }, 
      "inputs": [[811, 0, 0]]
    }, 
    {
      "op": "expand_dims", 
      "name": "expand_dims111", 
      "attrs": {"axis": "1"}, 
      "inputs": [[812, 0, 0]]
    }, 
    {
      "op": "slice", 
      "name": "slice112", 
      "attrs": {
        "begin": "(None, 7, None, None)", 
        "end": "(None, 11, None, None)"
      }, 
      "inputs": [[617, 0, 0]]
    }, 
    {
      "op": "Reshape", 
      "name": "reshape28", 
      "attrs": {"shape": "(-1, 180, 32)"}, 
      "inputs": [[814, 0, 0]]
    }, 
    {
      "op": "transpose", 
      "name": "transpose32", 
      "attrs": {"axes": "(1, 0, 2)"}, 
      "inputs": [[815, 0, 0]]
    }, 
    {
      "op": "dot", 
      "name": "dot84", 
      "inputs": [[3, 0, 0], [816, 0, 0]]
    }, 
    {
      "op": "null", 
      "name": "fullyconnected85_weight", 
      "attrs": {
        "flatten": "False", 
        "num_hidden": "32"
      }, 
      "inputs": []
    }, 
    {
      "op": "null", 
      "name": "fullyconnected85_bias", 
      "attrs": {
        "flatten": "False", 
        "num_hidden": "32"
      }, 
      "inputs": []
    }, 
    {
      "op": "FullyConnected", 
      "name": "fullyconnected85", 
      "attrs": {
        "flatten": "False", 
        "num_hidden": "32"
      }, 
      "inputs": [[817, 0, 0], [818, 0, 0], [819, 0, 0]]
    }, 
    {
      "op": "Activation", 
      "name": "activation85", 
      "attrs": {"act_type": "relu"}, 
      "inputs": [[820, 0, 0]]
    }, 
    {
      "op": "slice", 
      "name": "slice113", 
      "attrs": {
        "begin": "(45, None, None)", 
        "end": "(90, None, None)"
      }, 
      "inputs": [[821, 0, 0]]
    }, 
    {
      "op": "expand_dims", 
      "name": "expand_dims112", 
      "attrs": {"axis": "0"}, 
      "inputs": [[822, 0, 0]]
    }, 
    {
      "op": "dot", 
      "name": "dot85", 
      "inputs": [[3, 0, 0], [821, 0, 0]]
    }, 
    {
      "op": "null", 
      "name": "fullyconnected86_weight", 
      "attrs": {
        "flatten": "False", 
        "num_hidden": "32"
      }, 
      "inputs": []
    }, 
    {
      "op": "null", 
      "name": "fullyconnected86_bias", 
      "attrs": {
        "flatten": "False", 
        "num_hidden": "32"
      }, 
      "inputs": []
    }, 
    {
      "op": "FullyConnected", 
      "name": "fullyconnected86", 
      "attrs": {
        "flatten": "False", 
        "num_hidden": "32"
      }, 
      "inputs": [[824, 0, 0], [825, 0, 0], [826, 0, 0]]
    }, 
    {
      "op": "Activation", 
      "name": "activation86", 
      "attrs": {"act_type": "relu"}, 
      "inputs": [[827, 0, 0]]
    }, 
    {
      "op": "slice", 
      "name": "slice114", 
      "attrs": {
        "begin": "(45, None, None)", 
        "end": "(90, None, None)"
      }, 
      "inputs": [[828, 0, 0]]
    }, 
    {
      "op": "expand_dims", 
      "name": "expand_dims113", 
      "attrs": {"axis": "0"}, 
      "inputs": [[829, 0, 0]]
    }, 
    {
      "op": "dot", 
      "name": "dot86", 
      "inputs": [[3, 0, 0], [828, 0, 0]]
    }, 
    {
      "op": "null", 
      "name": "fullyconnected87_weight", 
      "attrs": {
        "flatten": "False", 
        "num_hidden": "32"
      }, 
      "inputs": []
    }, 
    {
      "op": "null", 
      "name": "fullyconnected87_bias", 
      "attrs": {
        "flatten": "False", 
        "num_hidden": "32"
      }, 
      "inputs": []
    }, 
    {
      "op": "FullyConnected", 
      "name": "fullyconnected87", 
      "attrs": {
        "flatten": "False", 
        "num_hidden": "32"
      }, 
      "inputs": [[831, 0, 0], [832, 0, 0], [833, 0, 0]]
    }, 
    {
      "op": "Activation", 
      "name": "activation87", 
      "attrs": {"act_type": "relu"}, 
      "inputs": [[834, 0, 0]]
    }, 
    {
      "op": "slice", 
      "name": "slice115", 
      "attrs": {
        "begin": "(45, None, None)", 
        "end": "(90, None, None)"
      }, 
      "inputs": [[835, 0, 0]]
    }, 
    {
      "op": "expand_dims", 
      "name": "expand_dims114", 
      "attrs": {"axis": "0"}, 
      "inputs": [[836, 0, 0]]
    }, 
    {
      "op": "Concat", 
      "name": "concat29", 
      "attrs": {
        "dim": "0", 
        "num_args": "3"
      }, 
      "inputs": [[823, 0, 0], [830, 0, 0], [837, 0, 0]]
    }, 
    {
      "op": "max", 
      "name": "max28", 
      "attrs": {"axis": "0"}, 
      "inputs": [[838, 0, 0]]
    }, 
    {
      "op": "SwapAxis", 
      "name": "swapaxes28", 
      "attrs": {
        "dim1": "0", 
        "dim2": "1"
      }, 
      "inputs": [[839, 0, 0]]
    }, 
    {
      "op": "expand_dims", 
      "name": "expand_dims115", 
      "attrs": {"axis": "1"}, 
      "inputs": [[840, 0, 0]]
    }, 
    {
      "op": "slice", 
      "name": "slice116", 
      "attrs": {
        "begin": "(None, 8, None, None)", 
        "end": "(None, 12, None, None)"
      }, 
      "inputs": [[617, 0, 0]]
    }, 
    {
      "op": "Reshape", 
      "name": "reshape29", 
      "attrs": {"shape": "(-1, 180, 32)"}, 
      "inputs": [[842, 0, 0]]
    }, 
    {
      "op": "transpose", 
      "name": "transpose33", 
      "attrs": {"axes": "(1, 0, 2)"}, 
      "inputs": [[843, 0, 0]]
    }, 
    {
      "op": "dot", 
      "name": "dot87", 
      "inputs": [[3, 0, 0], [844, 0, 0]]
    }, 
    {
      "op": "null", 
      "name": "fullyconnected88_weight", 
      "attrs": {
        "flatten": "False", 
        "num_hidden": "32"
      }, 
      "inputs": []
    }, 
    {
      "op": "null", 
      "name": "fullyconnected88_bias", 
      "attrs": {
        "flatten": "False", 
        "num_hidden": "32"
      }, 
      "inputs": []
    }, 
    {
      "op": "FullyConnected", 
      "name": "fullyconnected88", 
      "attrs": {
        "flatten": "False", 
        "num_hidden": "32"
      }, 
      "inputs": [[845, 0, 0], [846, 0, 0], [847, 0, 0]]
    }, 
    {
      "op": "Activation", 
      "name": "activation88", 
      "attrs": {"act_type": "relu"}, 
      "inputs": [[848, 0, 0]]
    }, 
    {
      "op": "slice", 
      "name": "slice117", 
      "attrs": {
        "begin": "(45, None, None)", 
        "end": "(90, None, None)"
      }, 
      "inputs": [[849, 0, 0]]
    }, 
    {
      "op": "expand_dims", 
      "name": "expand_dims116", 
      "attrs": {"axis": "0"}, 
      "inputs": [[850, 0, 0]]
    }, 
    {
      "op": "dot", 
      "name": "dot88", 
      "inputs": [[3, 0, 0], [849, 0, 0]]
    }, 
    {
      "op": "null", 
      "name": "fullyconnected89_weight", 
      "attrs": {
        "flatten": "False", 
        "num_hidden": "32"
      }, 
      "inputs": []
    }, 
    {
      "op": "null", 
      "name": "fullyconnected89_bias", 
      "attrs": {
        "flatten": "False", 
        "num_hidden": "32"
      }, 
      "inputs": []
    }, 
    {
      "op": "FullyConnected", 
      "name": "fullyconnected89", 
      "attrs": {
        "flatten": "False", 
        "num_hidden": "32"
      }, 
      "inputs": [[852, 0, 0], [853, 0, 0], [854, 0, 0]]
    }, 
    {
      "op": "Activation", 
      "name": "activation89", 
      "attrs": {"act_type": "relu"}, 
      "inputs": [[855, 0, 0]]
    }, 
    {
      "op": "slice", 
      "name": "slice118", 
      "attrs": {
        "begin": "(45, None, None)", 
        "end": "(90, None, None)"
      }, 
      "inputs": [[856, 0, 0]]
    }, 
    {
      "op": "expand_dims", 
      "name": "expand_dims117", 
      "attrs": {"axis": "0"}, 
      "inputs": [[857, 0, 0]]
    }, 
    {
      "op": "dot", 
      "name": "dot89", 
      "inputs": [[3, 0, 0], [856, 0, 0]]
    }, 
    {
      "op": "null", 
      "name": "fullyconnected90_weight", 
      "attrs": {
        "flatten": "False", 
        "num_hidden": "32"
      }, 
      "inputs": []
    }, 
    {
      "op": "null", 
      "name": "fullyconnected90_bias", 
      "attrs": {
        "flatten": "False", 
        "num_hidden": "32"
      }, 
      "inputs": []
    }, 
    {
      "op": "FullyConnected", 
      "name": "fullyconnected90", 
      "attrs": {
        "flatten": "False", 
        "num_hidden": "32"
      }, 
      "inputs": [[859, 0, 0], [860, 0, 0], [861, 0, 0]]
    }, 
    {
      "op": "Activation", 
      "name": "activation90", 
      "attrs": {"act_type": "relu"}, 
      "inputs": [[862, 0, 0]]
    }, 
    {
      "op": "slice", 
      "name": "slice119", 
      "attrs": {
        "begin": "(45, None, None)", 
        "end": "(90, None, None)"
      }, 
      "inputs": [[863, 0, 0]]
    }, 
    {
      "op": "expand_dims", 
      "name": "expand_dims118", 
      "attrs": {"axis": "0"}, 
      "inputs": [[864, 0, 0]]
    }, 
    {
      "op": "Concat", 
      "name": "concat30", 
      "attrs": {
        "dim": "0", 
        "num_args": "3"
      }, 
      "inputs": [[851, 0, 0], [858, 0, 0], [865, 0, 0]]
    }, 
    {
      "op": "max", 
      "name": "max29", 
      "attrs": {"axis": "0"}, 
      "inputs": [[866, 0, 0]]
    }, 
    {
      "op": "SwapAxis", 
      "name": "swapaxes29", 
      "attrs": {
        "dim1": "0", 
        "dim2": "1"
      }, 
      "inputs": [[867, 0, 0]]
    }, 
    {
      "op": "expand_dims", 
      "name": "expand_dims119", 
      "attrs": {"axis": "1"}, 
      "inputs": [[868, 0, 0]]
    }, 
    {
      "op": "slice", 
      "name": "slice120", 
      "attrs": {
        "begin": "(None, 9, None, None)", 
        "end": "(None, 13, None, None)"
      }, 
      "inputs": [[617, 0, 0]]
    }, 
    {
      "op": "Reshape", 
      "name": "reshape30", 
      "attrs": {"shape": "(-1, 180, 32)"}, 
      "inputs": [[870, 0, 0]]
    }, 
    {
      "op": "transpose", 
      "name": "transpose34", 
      "attrs": {"axes": "(1, 0, 2)"}, 
      "inputs": [[871, 0, 0]]
    }, 
    {
      "op": "dot", 
      "name": "dot90", 
      "inputs": [[3, 0, 0], [872, 0, 0]]
    }, 
    {
      "op": "null", 
      "name": "fullyconnected91_weight", 
      "attrs": {
        "flatten": "False", 
        "num_hidden": "32"
      }, 
      "inputs": []
    }, 
    {
      "op": "null", 
      "name": "fullyconnected91_bias", 
      "attrs": {
        "flatten": "False", 
        "num_hidden": "32"
      }, 
      "inputs": []
    }, 
    {
      "op": "FullyConnected", 
      "name": "fullyconnected91", 
      "attrs": {
        "flatten": "False", 
        "num_hidden": "32"
      }, 
      "inputs": [[873, 0, 0], [874, 0, 0], [875, 0, 0]]
    }, 
    {
      "op": "Activation", 
      "name": "activation91", 
      "attrs": {"act_type": "relu"}, 
      "inputs": [[876, 0, 0]]
    }, 
    {
      "op": "slice", 
      "name": "slice121", 
      "attrs": {
        "begin": "(45, None, None)", 
        "end": "(90, None, None)"
      }, 
      "inputs": [[877, 0, 0]]
    }, 
    {
      "op": "expand_dims", 
      "name": "expand_dims120", 
      "attrs": {"axis": "0"}, 
      "inputs": [[878, 0, 0]]
    }, 
    {
      "op": "dot", 
      "name": "dot91", 
      "inputs": [[3, 0, 0], [877, 0, 0]]
    }, 
    {
      "op": "null", 
      "name": "fullyconnected92_weight", 
      "attrs": {
        "flatten": "False", 
        "num_hidden": "32"
      }, 
      "inputs": []
    }, 
    {
      "op": "null", 
      "name": "fullyconnected92_bias", 
      "attrs": {
        "flatten": "False", 
        "num_hidden": "32"
      }, 
      "inputs": []
    }, 
    {
      "op": "FullyConnected", 
      "name": "fullyconnected92", 
      "attrs": {
        "flatten": "False", 
        "num_hidden": "32"
      }, 
      "inputs": [[880, 0, 0], [881, 0, 0], [882, 0, 0]]
    }, 
    {
      "op": "Activation", 
      "name": "activation92", 
      "attrs": {"act_type": "relu"}, 
      "inputs": [[883, 0, 0]]
    }, 
    {
      "op": "slice", 
      "name": "slice122", 
      "attrs": {
        "begin": "(45, None, None)", 
        "end": "(90, None, None)"
      }, 
      "inputs": [[884, 0, 0]]
    }, 
    {
      "op": "expand_dims", 
      "name": "expand_dims121", 
      "attrs": {"axis": "0"}, 
      "inputs": [[885, 0, 0]]
    }, 
    {
      "op": "dot", 
      "name": "dot92", 
      "inputs": [[3, 0, 0], [884, 0, 0]]
    }, 
    {
      "op": "null", 
      "name": "fullyconnected93_weight", 
      "attrs": {
        "flatten": "False", 
        "num_hidden": "32"
      }, 
      "inputs": []
    }, 
    {
      "op": "null", 
      "name": "fullyconnected93_bias", 
      "attrs": {
        "flatten": "False", 
        "num_hidden": "32"
      }, 
      "inputs": []
    }, 
    {
      "op": "FullyConnected", 
      "name": "fullyconnected93", 
      "attrs": {
        "flatten": "False", 
        "num_hidden": "32"
      }, 
      "inputs": [[887, 0, 0], [888, 0, 0], [889, 0, 0]]
    }, 
    {
      "op": "Activation", 
      "name": "activation93", 
      "attrs": {"act_type": "relu"}, 
      "inputs": [[890, 0, 0]]
    }, 
    {
      "op": "slice", 
      "name": "slice123", 
      "attrs": {
        "begin": "(45, None, None)", 
        "end": "(90, None, None)"
      }, 
      "inputs": [[891, 0, 0]]
    }, 
    {
      "op": "expand_dims", 
      "name": "expand_dims122", 
      "attrs": {"axis": "0"}, 
      "inputs": [[892, 0, 0]]
    }, 
    {
      "op": "Concat", 
      "name": "concat31", 
      "attrs": {
        "dim": "0", 
        "num_args": "3"
      }, 
      "inputs": [[879, 0, 0], [886, 0, 0], [893, 0, 0]]
    }, 
    {
      "op": "max", 
      "name": "max30", 
      "attrs": {"axis": "0"}, 
      "inputs": [[894, 0, 0]]
    }, 
    {
      "op": "SwapAxis", 
      "name": "swapaxes30", 
      "attrs": {
        "dim1": "0", 
        "dim2": "1"
      }, 
      "inputs": [[895, 0, 0]]
    }, 
    {
      "op": "expand_dims", 
      "name": "expand_dims123", 
      "attrs": {"axis": "1"}, 
      "inputs": [[896, 0, 0]]
    }, 
    {
      "op": "slice", 
      "name": "slice124", 
      "attrs": {
        "begin": "(None, 10, None, None)", 
        "end": "(None, 14, None, None)"
      }, 
      "inputs": [[617, 0, 0]]
    }, 
    {
      "op": "Reshape", 
      "name": "reshape31", 
      "attrs": {"shape": "(-1, 180, 32)"}, 
      "inputs": [[898, 0, 0]]
    }, 
    {
      "op": "transpose", 
      "name": "transpose35", 
      "attrs": {"axes": "(1, 0, 2)"}, 
      "inputs": [[899, 0, 0]]
    }, 
    {
      "op": "dot", 
      "name": "dot93", 
      "inputs": [[3, 0, 0], [900, 0, 0]]
    }, 
    {
      "op": "null", 
      "name": "fullyconnected94_weight", 
      "attrs": {
        "flatten": "False", 
        "num_hidden": "32"
      }, 
      "inputs": []
    }, 
    {
      "op": "null", 
      "name": "fullyconnected94_bias", 
      "attrs": {
        "flatten": "False", 
        "num_hidden": "32"
      }, 
      "inputs": []
    }, 
    {
      "op": "FullyConnected", 
      "name": "fullyconnected94", 
      "attrs": {
        "flatten": "False", 
        "num_hidden": "32"
      }, 
      "inputs": [[901, 0, 0], [902, 0, 0], [903, 0, 0]]
    }, 
    {
      "op": "Activation", 
      "name": "activation94", 
      "attrs": {"act_type": "relu"}, 
      "inputs": [[904, 0, 0]]
    }, 
    {
      "op": "slice", 
      "name": "slice125", 
      "attrs": {
        "begin": "(45, None, None)", 
        "end": "(90, None, None)"
      }, 
      "inputs": [[905, 0, 0]]
    }, 
    {
      "op": "expand_dims", 
      "name": "expand_dims124", 
      "attrs": {"axis": "0"}, 
      "inputs": [[906, 0, 0]]
    }, 
    {
      "op": "dot", 
      "name": "dot94", 
      "inputs": [[3, 0, 0], [905, 0, 0]]
    }, 
    {
      "op": "null", 
      "name": "fullyconnected95_weight", 
      "attrs": {
        "flatten": "False", 
        "num_hidden": "32"
      }, 
      "inputs": []
    }, 
    {
      "op": "null", 
      "name": "fullyconnected95_bias", 
      "attrs": {
        "flatten": "False", 
        "num_hidden": "32"
      }, 
      "inputs": []
    }, 
    {
      "op": "FullyConnected", 
      "name": "fullyconnected95", 
      "attrs": {
        "flatten": "False", 
        "num_hidden": "32"
      }, 
      "inputs": [[908, 0, 0], [909, 0, 0], [910, 0, 0]]
    }, 
    {
      "op": "Activation", 
      "name": "activation95", 
      "attrs": {"act_type": "relu"}, 
      "inputs": [[911, 0, 0]]
    }, 
    {
      "op": "slice", 
      "name": "slice126", 
      "attrs": {
        "begin": "(45, None, None)", 
        "end": "(90, None, None)"
      }, 
      "inputs": [[912, 0, 0]]
    }, 
    {
      "op": "expand_dims", 
      "name": "expand_dims125", 
      "attrs": {"axis": "0"}, 
      "inputs": [[913, 0, 0]]
    }, 
    {
      "op": "dot", 
      "name": "dot95", 
      "inputs": [[3, 0, 0], [912, 0, 0]]
    }, 
    {
      "op": "null", 
      "name": "fullyconnected96_weight", 
      "attrs": {
        "flatten": "False", 
        "num_hidden": "32"
      }, 
      "inputs": []
    }, 
    {
      "op": "null", 
      "name": "fullyconnected96_bias", 
      "attrs": {
        "flatten": "False", 
        "num_hidden": "32"
      }, 
      "inputs": []
    }, 
    {
      "op": "FullyConnected", 
      "name": "fullyconnected96", 
      "attrs": {
        "flatten": "False", 
        "num_hidden": "32"
      }, 
      "inputs": [[915, 0, 0], [916, 0, 0], [917, 0, 0]]
    }, 
    {
      "op": "Activation", 
      "name": "activation96", 
      "attrs": {"act_type": "relu"}, 
      "inputs": [[918, 0, 0]]
    }, 
    {
      "op": "slice", 
      "name": "slice127", 
      "attrs": {
        "begin": "(45, None, None)", 
        "end": "(90, None, None)"
      }, 
      "inputs": [[919, 0, 0]]
    }, 
    {
      "op": "expand_dims", 
      "name": "expand_dims126", 
      "attrs": {"axis": "0"}, 
      "inputs": [[920, 0, 0]]
    }, 
    {
      "op": "Concat", 
      "name": "concat32", 
      "attrs": {
        "dim": "0", 
        "num_args": "3"
      }, 
      "inputs": [[907, 0, 0], [914, 0, 0], [921, 0, 0]]
    }, 
    {
      "op": "max", 
      "name": "max31", 
      "attrs": {"axis": "0"}, 
      "inputs": [[922, 0, 0]]
    }, 
    {
      "op": "SwapAxis", 
      "name": "swapaxes31", 
      "attrs": {
        "dim1": "0", 
        "dim2": "1"
      }, 
      "inputs": [[923, 0, 0]]
    }, 
    {
      "op": "expand_dims", 
      "name": "expand_dims127", 
      "attrs": {"axis": "1"}, 
      "inputs": [[924, 0, 0]]
…
    }, 
    {
      "op": "null", 
      "name": "fullyconnected183_bias", 
      "attrs": {
        "flatten": "False", 
        "num_hidden": "128"
      }, 
      "inputs": []
    }, 
    {
      "op": "FullyConnected", 
      "name": "fullyconnected183", 
      "attrs": {
        "flatten": "False", 
        "num_hidden": "128"
      }, 
      "inputs": [[1673, 0, 0], [1674, 0, 0], [1675, 0, 0]]
    }, 
    {
      "op": "Activation", 
      "name": "activation173", 
      "attrs": {"act_type": "relu"}, 
      "inputs": [[1676, 0, 0]]
    }, 
    {
      "op": "null", 
      "name": "fullyconnected184_weight", 
      "attrs": {
        "flatten": "False", 
        "num_hidden": "1"
      }, 
      "inputs": []
    }, 
    {
      "op": "null", 
      "name": "fullyconnected184_bias", 
      "attrs": {
        "flatten": "False", 
        "num_hidden": "1"
      }, 
      "inputs": []
    }, 
    {
      "op": "FullyConnected", 
      "name": "fullyconnected184", 
      "attrs": {
        "flatten": "False", 
        "num_hidden": "1"
      }, 
      "inputs": [[1677, 0, 0], [1678, 0, 0], [1679, 0, 0]]
    }, 
    {
      "op": "SwapAxis", 
      "name": "swapaxes75", 
      "attrs": {
        "dim1": "1", 
        "dim2": "2"
      }, 
      "inputs": [[1680, 0, 0]]
    }, 
    {
      "op": "SwapAxis", 
      "name": "swapaxes76", 
      "attrs": {
        "dim1": "1", 
        "dim2": "2"
      }, 
      "inputs": [[1571, 0, 0]]
    }, 
    {
      "op": "Reshape", 
      "name": "reshape65", 
      "attrs": {"shape": "(-1, 45, 480)"}, 
      "inputs": [[1682, 0, 0]]
    }, 
    {
      "op": "null", 
      "name": "fullyconnected185_weight", 
      "attrs": {
        "flatten": "False", 
        "num_hidden": "128"
      }, 
      "inputs": []
    }, 
    {
      "op": "null", 
      "name": "fullyconnected185_bias", 
      "attrs": {
        "flatten": "False", 
        "num_hidden": "128"
      }, 
      "inputs": []
    }, 
    {
      "op": "FullyConnected", 
      "name": "fullyconnected185", 
      "attrs": {
        "flatten": "False", 
        "num_hidden": "128"
      }, 
      "inputs": [[1683, 0, 0], [1684, 0, 0], [1685, 0, 0]]
    }, 
    {
      "op": "Activation", 
      "name": "activation174", 
      "attrs": {"act_type": "relu"}, 
      "inputs": [[1686, 0, 0]]
    }, 
    {
      "op": "null", 
      "name": "fullyconnected186_weight", 
      "attrs": {
        "flatten": "False", 
        "num_hidden": "1"
      }, 
      "inputs": []
    }, 
    {
      "op": "null", 
      "name": "fullyconnected186_bias", 
      "attrs": {
        "flatten": "False", 
        "num_hidden": "1"
      }, 
      "inputs": []
    }, 
    {
      "op": "FullyConnected", 
      "name": "fullyconnected186", 
      "attrs": {
        "flatten": "False", 
        "num_hidden": "1"
      }, 
      "inputs": [[1687, 0, 0], [1688, 0, 0], [1689, 0, 0]]
    }, 
    {
      "op": "SwapAxis", 
      "name": "swapaxes77", 
      "attrs": {
        "dim1": "1", 
        "dim2": "2"
      }, 
      "inputs": [[1690, 0, 0]]
    }, 
    {
      "op": "SwapAxis", 
      "name": "swapaxes78", 
      "attrs": {
        "dim1": "1", 
        "dim2": "2"
      }, 
      "inputs": [[1571, 0, 0]]
    }, 
    {
      "op": "Reshape", 
      "name": "reshape66", 
      "attrs": {"shape": "(-1, 45, 480)"}, 
      "inputs": [[1692, 0, 0]]
    }, 
    {
      "op": "null", 
      "name": "fullyconnected187_weight", 
      "attrs": {
        "flatten": "False", 
        "num_hidden": "128"
      }, 
      "inputs": []
    }, 
    {
      "op": "null", 
      "name": "fullyconnected187_bias", 
      "attrs": {
        "flatten": "False", 
        "num_hidden": "128"
      }, 
      "inputs": []
    }, 
    {
      "op": "FullyConnected", 
      "name": "fullyconnected187", 
      "attrs": {
        "flatten": "False", 
        "num_hidden": "128"
      }, 
      "inputs": [[1693, 0, 0], [1694, 0, 0], [1695, 0, 0]]
    }, 
    {
      "op": "Activation", 
      "name": "activation175", 
      "attrs": {"act_type": "relu"}, 
      "inputs": [[1696, 0, 0]]
    }, 
    {
      "op": "null", 
      "name": "fullyconnected188_weight", 
      "attrs": {
        "flatten": "False", 
        "num_hidden": "1"
      }, 
      "inputs": []
    }, 
    {
      "op": "null", 
      "name": "fullyconnected188_bias", 
      "attrs": {
        "flatten": "False", 
        "num_hidden": "1"
      }, 
      "inputs": []
    }, 
    {
      "op": "FullyConnected", 
      "name": "fullyconnected188", 
      "attrs": {
        "flatten": "False", 
        "num_hidden": "1"
      }, 
      "inputs": [[1697, 0, 0], [1698, 0, 0], [1699, 0, 0]]
    }, 
    {
      "op": "SwapAxis", 
      "name": "swapaxes79", 
      "attrs": {
        "dim1": "1", 
        "dim2": "2"
      }, 
      "inputs": [[1700, 0, 0]]
    }, 
    {
      "op": "SwapAxis", 
      "name": "swapaxes80", 
      "attrs": {
        "dim1": "1", 
        "dim2": "2"
      }, 
      "inputs": [[1571, 0, 0]]
    }, 
    {
      "op": "Reshape", 
      "name": "reshape67", 
      "attrs": {"shape": "(-1, 45, 480)"}, 
      "inputs": [[1702, 0, 0]]
    }, 
    {
      "op": "null", 
      "name": "fullyconnected189_weight", 
      "attrs": {
        "flatten": "False", 
        "num_hidden": "128"
      }, 
      "inputs": []
    }, 
    {
      "op": "null", 
      "name": "fullyconnected189_bias", 
      "attrs": {
        "flatten": "False", 
        "num_hidden": "128"
      }, 
      "inputs": []
    }, 
    {
      "op": "FullyConnected", 
      "name": "fullyconnected189", 
      "attrs": {
        "flatten": "False", 
        "num_hidden": "128"
      }, 
      "inputs": [[1703, 0, 0], [1704, 0, 0], [1705, 0, 0]]
    }, 
    {
      "op": "Activation", 
      "name": "activation176", 
      "attrs": {"act_type": "relu"}, 
      "inputs": [[1706, 0, 0]]
    }, 
    {
      "op": "null", 
      "name": "fullyconnected190_weight", 
      "attrs": {
        "flatten": "False", 
        "num_hidden": "1"
      }, 
      "inputs": []
    }, 
    {
      "op": "null", 
      "name": "fullyconnected190_bias", 
      "attrs": {
        "flatten": "False", 
        "num_hidden": "1"
      }, 
      "inputs": []
    }, 
    {
      "op": "FullyConnected", 
      "name": "fullyconnected190", 
      "attrs": {
        "flatten": "False", 
        "num_hidden": "1"
      }, 
      "inputs": [[1707, 0, 0], [1708, 0, 0], [1709, 0, 0]]
    }, 
    {
      "op": "SwapAxis", 
      "name": "swapaxes81", 
      "attrs": {
        "dim1": "1", 
        "dim2": "2"
      }, 
      "inputs": [[1710, 0, 0]]
    }, 
    {
      "op": "SwapAxis", 
      "name": "swapaxes82", 
      "attrs": {
        "dim1": "1", 
        "dim2": "2"
      }, 
      "inputs": [[1571, 0, 0]]
    }, 
    {
      "op": "Reshape", 
      "name": "reshape68", 
      "attrs": {"shape": "(-1, 45, 480)"}, 
      "inputs": [[1712, 0, 0]]
    }, 
    {
      "op": "null", 
      "name": "fullyconnected191_weight", 
      "attrs": {
        "flatten": "False", 
        "num_hidden": "128"
      }, 
      "inputs": []
    }, 
    {
      "op": "null", 
      "name": "fullyconnected191_bias", 
      "attrs": {
        "flatten": "False", 
        "num_hidden": "128"
      }, 
      "inputs": []
    }, 
    {
      "op": "FullyConnected", 
      "name": "fullyconnected191", 
      "attrs": {
        "flatten": "False", 
        "num_hidden": "128"
      }, 
      "inputs": [[1713, 0, 0], [1714, 0, 0], [1715, 0, 0]]
    }, 
    {
      "op": "Activation", 
      "name": "activation177", 
      "attrs": {"act_type": "relu"}, 
      "inputs": [[1716, 0, 0]]
    }, 
    {
      "op": "null", 
      "name": "fullyconnected192_weight", 
      "attrs": {
        "flatten": "False", 
        "num_hidden": "1"
      }, 
      "inputs": []
    }, 
    {
      "op": "null", 
      "name": "fullyconnected192_bias", 
      "attrs": {
        "flatten": "False", 
        "num_hidden": "1"
      }, 
      "inputs": []
    }, 
    {
      "op": "FullyConnected", 
      "name": "fullyconnected192", 
      "attrs": {
        "flatten": "False", 
        "num_hidden": "1"
      }, 
      "inputs": [[1717, 0, 0], [1718, 0, 0], [1719, 0, 0]]
    }, 
    {
      "op": "SwapAxis", 
      "name": "swapaxes83", 
      "attrs": {
        "dim1": "1", 
        "dim2": "2"
      }, 
      "inputs": [[1720, 0, 0]]
    }, 
    {
      "op": "SwapAxis", 
      "name": "swapaxes84", 
      "attrs": {
        "dim1": "1", 
        "dim2": "2"
      }, 
      "inputs": [[1571, 0, 0]]
    }, 
    {
      "op": "Reshape", 
      "name": "reshape69", 
      "attrs": {"shape": "(-1, 45, 480)"}, 
      "inputs": [[1722, 0, 0]]
    }, 
    {
      "op": "null", 
      "name": "fullyconnected193_weight", 
      "attrs": {
        "flatten": "False", 
        "num_hidden": "128"
      }, 
      "inputs": []
    }, 
    {
      "op": "null", 
      "name": "fullyconnected193_bias", 
      "attrs": {
        "flatten": "False", 
        "num_hidden": "128"
      }, 
      "inputs": []
    }, 
    {
      "op": "FullyConnected", 
      "name": "fullyconnected193", 
      "attrs": {
        "flatten": "False", 
        "num_hidden": "128"
      }, 
      "inputs": [[1723, 0, 0], [1724, 0, 0], [1725, 0, 0]]
    }, 
    {
      "op": "Activation", 
      "name": "activation178", 
      "attrs": {"act_type": "relu"}, 
      "inputs": [[1726, 0, 0]]
    }, 
    {
      "op": "null", 
      "name": "fullyconnected194_weight", 
      "attrs": {
        "flatten": "False", 
        "num_hidden": "1"
      }, 
      "inputs": []
    }, 
    {
      "op": "null", 
      "name": "fullyconnected194_bias", 
      "attrs": {
        "flatten": "False", 
        "num_hidden": "1"
      }, 
      "inputs": []
    }, 
    {
      "op": "FullyConnected", 
      "name": "fullyconnected194", 
      "attrs": {
        "flatten": "False", 
        "num_hidden": "1"
      }, 
      "inputs": [[1727, 0, 0], [1728, 0, 0], [1729, 0, 0]]
    }, 
    {
      "op": "SwapAxis", 
      "name": "swapaxes85", 
      "attrs": {
        "dim1": "1", 
        "dim2": "2"
      }, 
      "inputs": [[1730, 0, 0]]
    }, 
    {
      "op": "SwapAxis", 
      "name": "swapaxes86", 
      "attrs": {
        "dim1": "1", 
        "dim2": "2"
      }, 
      "inputs": [[1571, 0, 0]]
    }, 
    {
      "op": "Reshape", 
      "name": "reshape70", 
      "attrs": {"shape": "(-1, 45, 480)"}, 
      "inputs": [[1732, 0, 0]]
    }, 
    {
      "op": "null", 
      "name": "fullyconnected195_weight", 
      "attrs": {
        "flatten": "False", 
        "num_hidden": "128"
      }, 
      "inputs": []
    }, 
    {
      "op": "null", 
      "name": "fullyconnected195_bias", 
      "attrs": {
        "flatten": "False", 
        "num_hidden": "128"
      }, 
      "inputs": []
    }, 
    {
      "op": "FullyConnected", 
      "name": "fullyconnected195", 
      "attrs": {
        "flatten": "False", 
        "num_hidden": "128"
      }, 
      "inputs": [[1733, 0, 0], [1734, 0, 0], [1735, 0, 0]]
    }, 
    {
      "op": "Activation", 
      "name": "activation179", 
      "attrs": {"act_type": "relu"}, 
      "inputs": [[1736, 0, 0]]
    }, 
    {
      "op": "null", 
      "name": "fullyconnected196_weight", 
      "attrs": {
        "flatten": "False", 
        "num_hidden": "1"
      }, 
      "inputs": []
    }, 
    {
      "op": "null", 
      "name": "fullyconnected196_bias", 
      "attrs": {
        "flatten": "False", 
        "num_hidden": "1"
      }, 
      "inputs": []
    }, 
    {
      "op": "FullyConnected", 
      "name": "fullyconnected196", 
      "attrs": {
        "flatten": "False", 
        "num_hidden": "1"
      }, 
      "inputs": [[1737, 0, 0], [1738, 0, 0], [1739, 0, 0]]
    }, 
    {
      "op": "SwapAxis", 
      "name": "swapaxes87", 
      "attrs": {
        "dim1": "1", 
        "dim2": "2"
      }, 
      "inputs": [[1740, 0, 0]]
    }, 
    {
      "op": "SwapAxis", 
      "name": "swapaxes88", 
      "attrs": {
        "dim1": "1", 
        "dim2": "2"
      }, 
      "inputs": [[1571, 0, 0]]
    }, 
    {
      "op": "Reshape", 
      "name": "reshape71", 
      "attrs": {"shape": "(-1, 45, 480)"}, 
      "inputs": [[1742, 0, 0]]
    }, 
    {
      "op": "null", 
      "name": "fullyconnected197_weight", 
      "attrs": {
        "flatten": "False", 
        "num_hidden": "128"
      }, 
      "inputs": []
    }, 
    {
      "op": "null", 
      "name": "fullyconnected197_bias", 
      "attrs": {
        "flatten": "False", 
        "num_hidden": "128"
      }, 
      "inputs": []
    }, 
    {
      "op": "FullyConnected", 
      "name": "fullyconnected197", 
      "attrs": {
        "flatten": "False", 
        "num_hidden": "128"
      }, 
      "inputs": [[1743, 0, 0], [1744, 0, 0], [1745, 0, 0]]
    }, 
    {
      "op": "Activation", 
      "name": "activation180", 
      "attrs": {"act_type": "relu"}, 
      "inputs": [[1746, 0, 0]]
    }, 
    {
      "op": "null", 
      "name": "fullyconnected198_weight", 
      "attrs": {
        "flatten": "False", 
        "num_hidden": "1"
      }, 
      "inputs": []
    }, 
    {
      "op": "null", 
      "name": "fullyconnected198_bias", 
      "attrs": {
        "flatten": "False", 
        "num_hidden": "1"
      }, 
      "inputs": []
    }, 
    {
      "op": "FullyConnected", 
      "name": "fullyconnected198", 
      "attrs": {
        "flatten": "False", 
        "num_hidden": "1"
      }, 
      "inputs": [[1747, 0, 0], [1748, 0, 0], [1749, 0, 0]]
    }, 
    {
      "op": "SwapAxis", 
      "name": "swapaxes89", 
      "attrs": {
        "dim1": "1", 
        "dim2": "2"
      }, 
      "inputs": [[1750, 0, 0]]
    }, 
    {
      "op": "SwapAxis", 
      "name": "swapaxes90", 
      "attrs": {
        "dim1": "1", 
        "dim2": "2"
      }, 
      "inputs": [[1571, 0, 0]]
    }, 
    {
      "op": "Reshape", 
      "name": "reshape72", 
      "attrs": {"shape": "(-1, 45, 480)"}, 
      "inputs": [[1752, 0, 0]]
    }, 
    {
      "op": "null", 
      "name": "fullyconnected199_weight", 
      "attrs": {
        "flatten": "False", 
        "num_hidden": "128"
      }, 
      "inputs": []
    }, 
    {
      "op": "null", 
      "name": "fullyconnected199_bias", 
      "attrs": {
        "flatten": "False", 
        "num_hidden": "128"
      }, 
      "inputs": []
    }, 
    {
      "op": "FullyConnected", 
      "name": "fullyconnected199", 
      "attrs": {
        "flatten": "False", 
        "num_hidden": "128"
      }, 
      "inputs": [[1753, 0, 0], [1754, 0, 0], [1755, 0, 0]]
    }, 
    {
      "op": "Activation", 
      "name": "activation181", 
      "attrs": {"act_type": "relu"}, 
      "inputs": [[1756, 0, 0]]
    }, 
    {
      "op": "null", 
      "name": "fullyconnected200_weight", 
      "attrs": {
        "flatten": "False", 
        "num_hidden": "1"
      }, 
      "inputs": []
    }, 
    {
      "op": "null", 
      "name": "fullyconnected200_bias", 
      "attrs": {
        "flatten": "False", 
        "num_hidden": "1"
      }, 
      "inputs": []
    }, 
    {
      "op": "FullyConnected", 
      "name": "fullyconnected200", 
      "attrs": {
        "flatten": "False", 
        "num_hidden": "1"
      }, 
      "inputs": [[1757, 0, 0], [1758, 0, 0], [1759, 0, 0]]
    }, 
    {
      "op": "SwapAxis", 
      "name": "swapaxes91", 
      "attrs": {
        "dim1": "1", 
        "dim2": "2"
      }, 
      "inputs": [[1760, 0, 0]]
    }, 
    {
      "op": "SwapAxis", 
      "name": "swapaxes92", 
      "attrs": {
        "dim1": "1", 
        "dim2": "2"
      }, 
      "inputs": [[1571, 0, 0]]
    }, 
    {
      "op": "Reshape", 
      "name": "reshape73", 
      "attrs": {"shape": "(-1, 45, 480)"}, 
      "inputs": [[1762, 0, 0]]
    }, 
    {
      "op": "null", 
      "name": "fullyconnected201_weight", 
      "attrs": {
        "flatten": "False", 
        "num_hidden": "128"
      }, 
      "inputs": []
    }, 
    {
      "op": "null", 
      "name": "fullyconnected201_bias", 
      "attrs": {
        "flatten": "False", 
        "num_hidden": "128"
      }, 
      "inputs": []
    }, 
    {
      "op": "FullyConnected", 
      "name": "fullyconnected201", 
      "attrs": {
        "flatten": "False", 
        "num_hidden": "128"
      }, 
      "inputs": [[1763, 0, 0], [1764, 0, 0], [1765, 0, 0]]
    }, 
    {
      "op": "Activation", 
      "name": "activation182", 
      "attrs": {"act_type": "relu"}, 
      "inputs": [[1766, 0, 0]]
    }, 
    {
      "op": "null", 
      "name": "fullyconnected202_weight", 
      "attrs": {
        "flatten": "False", 
        "num_hidden": "1"
      }, 
      "inputs": []
    }, 
    {
      "op": "null", 
      "name": "fullyconnected202_bias", 
      "attrs": {
        "flatten": "False", 
        "num_hidden": "1"
      }, 
      "inputs": []
    }, 
    {
      "op": "FullyConnected", 
      "name": "fullyconnected202", 
      "attrs": {
        "flatten": "False", 
        "num_hidden": "1"
      }, 
      "inputs": [[1767, 0, 0], [1768, 0, 0], [1769, 0, 0]]
    }, 
    {
      "op": "SwapAxis", 
      "name": "swapaxes93", 
      "attrs": {
        "dim1": "1", 
        "dim2": "2"
      }, 
      "inputs": [[1770, 0, 0]]
    }, 
    {
      "op": "SwapAxis", 
      "name": "swapaxes94", 
      "attrs": {
        "dim1": "1", 
        "dim2": "2"
      }, 
      "inputs": [[1571, 0, 0]]
    }, 
    {
      "op": "Reshape", 
      "name": "reshape74", 
      "attrs": {"shape": "(-1, 45, 480)"}, 
      "inputs": [[1772, 0, 0]]
    }, 
    {
      "op": "null", 
      "name": "fullyconnected203_weight", 
      "attrs": {
        "flatten": "False", 
        "num_hidden": "128"
      }, 
      "inputs": []
    }, 
    {
      "op": "null", 
      "name": "fullyconnected203_bias", 
      "attrs": {
        "flatten": "False", 
        "num_hidden": "128"
      }, 
      "inputs": []
    }, 
    {
      "op": "FullyConnected", 
      "name": "fullyconnected203", 
      "attrs": {
        "flatten": "False", 
        "num_hidden": "128"
      }, 
      "inputs": [[1773, 0, 0], [1774, 0, 0], [1775, 0, 0]]
    }, 
    {
      "op": "Activation", 
      "name": "activation183", 
      "attrs": {"act_type": "relu"}, 
      "inputs": [[1776, 0, 0]]
    }, 
    {
      "op": "null", 
      "name": "fullyconnected204_weight", 
      "attrs": {
        "flatten": "False", 
        "num_hidden": "1"
      }, 
      "inputs": []
    }, 
    {
      "op": "null", 
      "name": "fullyconnected204_bias", 
      "attrs": {
        "flatten": "False", 
        "num_hidden": "1"
      }, 
      "inputs": []
    }, 
    {
      "op": "FullyConnected", 
      "name": "fullyconnected204", 
      "attrs": {
        "flatten": "False", 
        "num_hidden": "1"
      }, 
      "inputs": [[1777, 0, 0], [1778, 0, 0], [1779, 0, 0]]
    }, 
    {
      "op": "SwapAxis", 
      "name": "swapaxes95", 
      "attrs": {
        "dim1": "1", 
        "dim2": "2"
      }, 
      "inputs": [[1780, 0, 0]]
    }, 
    {
      "op": "SwapAxis", 
      "name": "swapaxes96", 
      "attrs": {
        "dim1": "1", 
        "dim2": "2"
      }, 
      "inputs": [[1571, 0, 0]]
    }, 
    {
      "op": "Reshape", 
      "name": "reshape75", 
      "attrs": {"shape": "(-1, 45, 480)"}, 
      "inputs": [[1782, 0, 0]]
    }, 
    {
      "op": "null", 
      "name": "fullyconnected205_weight", 
      "attrs": {
        "flatten": "False", 
        "num_hidden": "128"
      }, 
      "inputs": []
    }, 
    {
      "op": "null", 
      "name": "fullyconnected205_bias", 
      "attrs": {
        "flatten": "False", 
        "num_hidden": "128"
      }, 
      "inputs": []
    }, 
    {
      "op": "FullyConnected", 
      "name": "fullyconnected205", 
      "attrs": {
        "flatten": "False", 
        "num_hidden": "128"
      }, 
      "inputs": [[1783, 0, 0], [1784, 0, 0], [1785, 0, 0]]
    }, 
    {
      "op": "Activation", 
      "name": "activation184", 
      "attrs": {"act_type": "relu"}, 
      "inputs": [[1786, 0, 0]]
    }, 
    {
      "op": "null", 
      "name": "fullyconnected206_weight", 
      "attrs": {
        "flatten": "False", 
        "num_hidden": "1"
      }, 
      "inputs": []
    }, 
    {
      "op": "null", 
      "name": "fullyconnected206_bias", 
      "attrs": {
        "flatten": "False", 
        "num_hidden": "1"
      }, 
      "inputs": []
    }, 
    {
      "op": "FullyConnected", 
      "name": "fullyconnected206", 
      "attrs": {
        "flatten": "False", 
        "num_hidden": "1"
      }, 
      "inputs": [[1787, 0, 0], [1788, 0, 0], [1789, 0, 0]]
    }, 
    {
      "op": "SwapAxis", 
      "name": "swapaxes97", 
      "attrs": {
        "dim1": "1", 
        "dim2": "2"
      }, 
      "inputs": [[1790, 0, 0]]
    }, 
    {
      "op": "SwapAxis", 
      "name": "swapaxes98", 
      "attrs": {
        "dim1": "1", 
        "dim2": "2"
      }, 
      "inputs": [[1571, 0, 0]]
    }, 
    {
      "op": "Reshape", 
      "name": "reshape76", 
      "attrs": {"shape": "(-1, 45, 480)"}, 
      "inputs": [[1792, 0, 0]]
    }, 
    {
      "op": "null", 
      "name": "fullyconnected207_weight", 
      "attrs": {
        "flatten": "False", 
        "num_hidden": "128"
      }, 
      "inputs": []
    }, 
    {
      "op": "null", 
      "name": "fullyconnected207_bias", 
      "attrs": {
        "flatten": "False", 
        "num_hidden": "128"
      }, 
      "inputs": []
    }, 
    {
      "op": "FullyConnected", 
      "name": "fullyconnected207", 
      "attrs": {
        "flatten": "False", 
        "num_hidden": "128"
      }, 
      "inputs": [[1793, 0, 0], [1794, 0, 0], [1795, 0, 0]]
    }, 
    {
      "op": "Activation", 
      "name": "activation185", 
      "attrs": {"act_type": "relu"}, 
      "inputs": [[1796, 0, 0]]
    }, 
    {
      "op": "null", 
      "name": "fullyconnected208_weight", 
      "attrs": {
        "flatten": "False", 
        "num_hidden": "1"
      }, 
      "inputs": []
    }, 
    {
      "op": "null", 
      "name": "fullyconnected208_bias", 
      "attrs": {
        "flatten": "False", 
        "num_hidden": "1"
      }, 
      "inputs": []
    }, 
    {
      "op": "FullyConnected", 
      "name": "fullyconnected208", 
      "attrs": {
        "flatten": "False", 
        "num_hidden": "1"
      }, 
      "inputs": [[1797, 0, 0], [1798, 0, 0], [1799, 0, 0]]
    }, 
    {
      "op": "SwapAxis", 
      "name": "swapaxes99", 
      "attrs": {
        "dim1": "1", 
        "dim2": "2"
      }, 
      "inputs": [[1800, 0, 0]]
    }, 
    {
      "op": "SwapAxis", 
      "name": "swapaxes100", 
      "attrs": {
        "dim1": "1", 
        "dim2": "2"
      }, 
      "inputs": [[1571, 0, 0]]
    }, 
    {
      "op": "Reshape", 
      "name": "reshape77", 
      "attrs": {"shape": "(-1, 45, 480)"}, 
      "inputs": [[1802, 0, 0]]
    }, 
    {
      "op": "null", 
      "name": "fullyconnected209_weight", 
      "attrs": {
        "flatten": "False", 
        "num_hidden": "128"
      }, 
      "inputs": []
    }, 
    {
      "op": "null", 
      "name": "fullyconnected209_bias", 
      "attrs": {
        "flatten": "False", 
        "num_hidden": "128"
      }, 
      "inputs": []
    }, 
    {
      "op": "FullyConnected", 
      "name": "fullyconnected209", 
      "attrs": {
        "flatten": "False", 
        "num_hidden": "128"
      }, 
      "inputs": [[1803, 0, 0], [1804, 0, 0], [1805, 0, 0]]
    }, 
    {
      "op": "Activation", 
      "name": "activation186", 
      "attrs": {"act_type": "relu"}, 
      "inputs": [[1806, 0, 0]]
    }, 
    {
      "op": "null", 
      "name": "fullyconnected210_weight", 
      "attrs": {
        "flatten": "False", 
        "num_hidden": "1"
      }, 
      "inputs": []
    }, 
    {
      "op": "null", 
      "name": "fullyconnected210_bias", 
      "attrs": {
        "flatten": "False", 
        "num_hidden": "1"
      }, 
      "inputs": []
    }, 
    {
      "op": "FullyConnected", 
      "name": "fullyconnected210", 
      "attrs": {
        "flatten": "False", 
        "num_hidden": "1"
      }, 
      "inputs": [[1807, 0, 0], [1808, 0, 0], [1809, 0, 0]]
    }, 
    {
      "op": "SwapAxis", 
      "name": "swapaxes101", 
      "attrs": {
        "dim1": "1", 
        "dim2": "2"
      }, 
      "inputs": [[1810, 0, 0]]
    }, 
    {
      "op": "Concat", 
      "name": "concat57", 
      "attrs": {
        "dim": "1", 
        "num_args": "24"
      }, 
      "inputs": [
        [1581, 0, 0], 
        [1591, 0, 0], 
        [1601, 0, 0], 
        [1611, 0, 0], 
        [1621, 0, 0], 
        [1631, 0, 0], 
        [1641, 0, 0], 
        [1651, 0, 0], 
        [1661, 0, 0], 
        [1671, 0, 0], 
        [1681, 0, 0], 
        [1691, 0, 0], 
        [1701, 0, 0], 
        [1711, 0, 0], 
        [1721, 0, 0], 
        [1731, 0, 0], 
        [1741, 0, 0], 
        [1751, 0, 0], 
        [1761, 0, 0], 
        [1771, 0, 0], 
        [1781, 0, 0], 
        [1791, 0, 0], 
        [1801, 0, 0], 
        [1811, 0, 0]
      ]
    }, 
    {
      "op": "null", 
      "name": "label", 
      "inputs": []
    }, 
    {
      "op": "elemwise_sub", 
      "name": "_minus0", 
      "inputs": [[1812, 0, 0], [1813, 0, 0]]
    }, 
    {
      "op": "abs", 
      "name": "abs0", 
      "inputs": [[1814, 0, 0]]
    }, 
    {
      "op": "_greater_scalar", 
      "name": "_greater_scalar0", 
      "attrs": {"scalar": "1"}, 
      "inputs": [[1815, 0, 0]]
    }, 
    {
      "op": "_minus_scalar", 
      "name": "_minusscalar0", 
      "attrs": {"scalar": "0.5"}, 
      "inputs": [[1815, 0, 0]]
    }, 
    {
      "op": "square", 
      "name": "square0", 
      "inputs": [[1815, 0, 0]]
    }, 
    {
      "op": "_mul_scalar", 
      "name": "_mulscalar0", 
      "attrs": {"scalar": "0.5"}, 
      "inputs": [[1818, 0, 0]]
    }, 
    {
      "op": "where", 
      "name": "where0", 
      "inputs": [[1816, 0, 0], [1817, 0, 0], [1819, 0, 0]]
    }, 
    {
      "op": "MakeLoss", 
      "name": "makeloss0", 
      "inputs": [[1820, 0, 0]]
    }, 
    {
      "op": "BlockGrad", 
      "name": "pred", 
      "inputs": [[1812, 0, 0]]
    }
  ], 
  "arg_nodes": [
    0, 
    1, 
    4, 
    5, 
    6, 
    9, 
    11, 
    17, 
    18, 
    24, 
    25, 
    31, 
    32, 
    45, 
    46, 
    52, 
    53, 
    59, 
    60, 
    73, 
    74, 
    80, 
    81, 
    87, 
    88, 
    101, 
    102, 
    108, 
    109, 
    115, 
    116, 
    129, 
    130, 
    136, 
    137, 
    143, 
    144, 
    157, 
    158, 
    164, 
    165, 
    171, 
    172, 
    185, 
    186, 
    192, 
    193, 
    199, 
    200, 
    213, 
    214, 
    220, 
    221, 
    227, 
    228, 
    241, 
    242, 
    248, 
    249, 
    255, 
    256, 
    269, 
    270, 
    276, 
    277, 
    283, 
    284, 
    297, 
    298, 
    304, 
    305, 
    311, 
    312, 
    325, 
    326, 
    332, 
    333, 
    339, 
    340, 
    353, 
    354, 
    360, 
    361, 
    367, 
    368, 
    381, 
    382, 
    388, 
    389, 
    395, 
    396, 
    409, 
    410, 
    416, 
    417, 
    423, 
    424, 
    437, 
    438, 
    444, 
    445, 
    451, 
    452, 
    465, 
    466, 
    472, 
    473, 
    479, 
    480, 
    493, 
    494, 
    500, 
    501, 
    507, 
    508, 
    521, 
    522, 
    528, 
    529, 
    535, 
    536, 
    549, 
    550, 
    556, 
    557, 
    563, 
    564, 
    577, 
    578, 
    584, 
    585, 
    591, 
    592, 
    603, 
    604, 
    607, 
    608, 
    614, 
    616, 
    622, 
    623, 
    629, 
    630, 
    636, 
    637, 
    650, 
    651, 
    657, 
    658, 
    664, 
    665, 
    678, 
    679, 
    685, 
    686, 
    692, 
    693, 
    706, 
    707, 
    713, 
    714, 
    720, 
    721, 
    734, 
    735, 
    741, 
    742, 
    748, 
    749, 
    762, 
    763, 
    769, 
    770, 
    776, 
    777, 
    790, 
    791, 
    797, 
    798, 
    804, 
    805, 
    818, 
    819, 
    825, 
    826, 
    832, 
    833, 
    846, 
    847, 
    853, 
    854, 
    860, 
    861, 
    874, 
    875, 
    881, 
    882, 
    888, 
    889, 
    902, 
    903, 
    909, 
    910, 
    916, 
    917, 
    930, 
    931, 
    937, 
    938, 
    944, 
    945, 
    958, 
    959, 
    965, 
    966, 
    972, 
    973, 
    986, 
    987, 
    993, 
    994, 
    1000, 
    1001, 
    1014, 
    1015, 
    1021, 
    1022, 
    1028, 
    1029, 
    1042, 
    1043, 
    1049, 
    1050, 
    1056, 
    1057, 
    1070, 
    1071, 
    1077, 
    1078, 
    1084, 
    1085, 
    1098, 
    1099, 
    1105, 
    1106, 
    1112, 
    1113, 
    1124, 
    1125, 
    1128, 
    1129, 
    1135, 
    1137, 
    1143, 
    1144, 
    1150, 
    1151, 
    1157, 
    1158, 
    1171, 
    1172, 
    1178, 
    1179, 
    1185, 
    1186, 
    1199, 
    1200, 
    1206, 
    1207, 
    1213, 
    1214, 
    1227, 
    1228, 
    1234, 
    1235, 
    1241, 
    1242, 
    1255, 
    1256, 
    1262, 
    1263, 
    1269, 
    1270, 
    1283, 
    1284, 
    1290, 
    1291, 
    1297, 
    1298, 
    1311, 
    1312, 
    1318, 
    1319, 
    1325, 
    1326, 
    1339, 
    1340, 
    1346, 
    1347, 
    1353, 
    1354, 
    1367, 
    1368, 
    1374, 
    1375, 
    1381, 
    1382, 
    1395, 
    1396, 
    1402, 
    1403, 
    1409, 
    1410, 
    1423, 
    1424, 
    1430, 
    1431, 
    1437, 
    1438, 
    1451, 
    1452, 
    1458, 
    1459, 
    1465, 
    1466, 
    1479, 
    1480, 
    1486, 
    1487, 
    1493, 
    1494, 
    1507, 
    1508, 
    1514, 
    1515, 
    1521, 
    1522, 
    1535, 
    1536, 
    1542, 
    1543, 
    1549, 
    1550, 
    1561, 
    1562, 
    1565, 
    1566, 
    1574, 
    1575, 
    1578, 
    1579, 
    1584, 
    1585, 
    1588, 
    1589, 
    1594, 
    1595, 
    1598, 
    1599, 
    1604, 
    1605, 
    1608, 
    1609, 
    1614, 
    1615, 
    1618, 
    1619, 
    1624, 
    1625, 
    1628, 
    1629, 
    1634, 
    1635, 
    1638, 
    1639, 
    1644, 
    1645, 
    1648, 
    1649, 
    1654, 
    1655, 
    1658, 
    1659, 
    1664, 
    1665, 
    1668, 
    1669, 
    1674, 
    1675, 
    1678, 
    1679, 
    1684, 
    1685, 
    1688, 
    1689, 
    1694, 
    1695, 
    1698, 
    1699, 
    1704, 
    1705, 
    1708, 
    1709, 
    1714, 
    1715, 
    1718, 
    1719, 
    1724, 
    1725, 
    1728, 
    1729, 
    1734, 
    1735, 
    1738, 
    1739, 
    1744, 
    1745, 
    1748, 
    1749, 
    1754, 
    1755, 
    1758, 
    1759, 
    1764, 
    1765, 
    1768, 
    1769, 
    1774, 
    1775, 
    1778, 
    1779, 
    1784, 
    1785, 
    1788, 
    1789, 
    1794, 
    1795, 
    1798, 
    1799, 
    1804, 
    1805, 
    1808, 
    1809, 
    1813
  ], 
  "node_row_ptr": [
    0, 
    1, 
    2, 
    3, 
    4, 
    5, 
    6, 
    7, 
    8, 
    9, 
    10, 
    11, 
    12, 
    13, 
    14, 
    15, 
    16, 
    17, 
    18, 
    19, 
    20, 
    21, 
    22, 
    23, 
    24, 
    25, 
    26, 
    27, 
    28, 
    29, 
    30, 
    31, 
    32, 
    33, 
    34, 
    35, 
    36, 
    37, 
    38, 
    39, 
    40, 
    41, 
    42, 
    43, 
    44, 
    45, 
    46, 
    47, 
    48, 
    49, 
    50, 
    51, 
    52, 
    53, 
    54, 
    55, 
    56, 
    57, 
    58, 
    59, 
    60, 
    61, 
    62, 
    63, 
    64, 
    65, 
    66, 
    67, 
    68, 
    69, 
    70, 
    71, 
    72, 
    73, 
    74, 
    75, 
    76, 
    77, 
    78, 
    79, 
    80, 
    81, 
    82, 
    83, 
    84, 
    85, 
    86, 
    87, 
    88, 
    89, 
    90, 
    91, 
    92, 
    93, 
    94, 
    95, 
    96, 
    97, 
    98, 
    99, 
    100, 
    101, 
    102, 
    103, 
    104, 
    105, 
    106, 
    107, 
    108, 
    109, 
    110, 
    111, 
    112, 
    113, 
    114, 
    115, 
    116, 
    117, 
    118, 
    119, 
    120, 
    121, 
    122, 
    123, 
    124, 
    125, 
    126, 
    127, 
    128, 
    129, 
    130, 
    131, 
    132, 
    133, 
    134, 
    135, 
    136, 
    137, 
    138, 
    139, 
    140, 
    141, 
    142, 
    143, 
    144, 
    145, 
    146, 
    147, 
    148, 
    149, 
    150, 
    151, 
    152, 
    153, 
    154, 
    155, 
    156, 
    157, 
    158, 
    159, 
    160, 
    161, 
    162, 
    163, 
    164, 
    165, 
    166, 
    167, 
    168, 
    169, 
    170, 
    171, 
    172, 
    173, 
    174, 
    175, 
    176, 
    177, 
    178, 
    179, 
    180, 
    181, 
    182, 
    183, 
    184, 
    185, 
    186, 
    187, 
    188, 
    189, 
    190, 
    191, 
    192, 
    193, 
    194, 
    195, 
    196, 
    197, 
    198, 
    199, 
    200, 
    201, 
    202, 
    203, 
    204, 
    205, 
    206, 
    207, 
    208, 
    209, 
    210, 
    211, 
    212, 
    213, 
    214, 
    215, 
    216, 
    217, 
    218, 
    219, 
    220, 
    221, 
    222, 
    223, 
    224, 
    225, 
    226, 
    227, 
    228, 
    229, 
    230, 
    231, 
    232, 
    233, 
    234, 
    235, 
    236, 
    237, 
    238, 
    239, 
    240, 
    241, 
    242, 
    243, 
    244, 
    245, 
    246, 
    247, 
    248, 
    249, 
    250, 
    251, 
    252, 
    253, 
    254, 
    255, 
    256, 
    257, 
    258, 
    259, 
    260, 
    261, 
    262, 
    263, 
    264, 
    265, 
    266, 
    267, 
    268, 
    269, 
    270, 
    271, 
    272, 
    273, 
    274, 
    275, 
    276, 
    277, 
    278, 
    279, 
    280, 
    281, 
    282, 
    283, 
    284, 
    285, 
    286, 
    287, 
    288, 
    289, 
    290, 
    291, 
    292, 
    293, 
    294, 
    295, 
    296, 
    297, 
    298, 
    299, 
    300, 
    301, 
    302, 
    303, 
    304, 
    305, 
    306, 
    307, 
    308, 
    309, 
    310, 
    311, 
    312, 
    313, 
    314, 
    315, 
    316, 
    317, 
    318, 
    319, 
    320, 
    321, 
    322, 
    323, 
    324, 
    325, 
    326, 
    327, 
    328, 
    329, 
    330, 
    331, 
    332, 
    333, 
    334, 
    335, 
    336, 
    337, 
    338, 
    339, 
    340, 
    341, 
    342, 
    343, 
    344, 
    345, 
    346, 
    347, 
    348, 
    349, 
    350, 
    351, 
    352, 
    353, 
    354, 
    355, 
    356, 
    357, 
    358, 
    359, 
    360, 
    361, 
    362, 
    363, 
    364, 
    365, 
    366, 
    367, 
    368, 
    369, 
    370, 
    371, 
    372, 
    373, 
    374, 
    375, 
    376, 
    377, 
    378, 
    379, 
    380, 
    381, 
    382, 
    383, 
    384, 
    385, 
    386, 
    387, 
    388, 
    389, 
    390, 
    391, 
    392, 
    393, 
    394, 
    395, 
    396, 
    397, 
    398, 
    399, 
    400, 
    401, 
    402, 
    403, 
    404, 
    405, 
    406, 
    407, 
    408, 
    409, 
    410, 
    411, 
    412, 
    413, 
    414, 
    415, 
    416, 
    417, 
    418, 
    419, 
    420, 
    421, 
    422, 
    423, 
    424, 
    425, 
    426, 
    427, 
    428, 
    429, 
    430, 
    431, 
    432, 
    433, 
    434, 
    435, 
    436, 
    437, 
    438, 
    439, 
    440, 
    441, 
    442, 
    443, 
    444, 
    445, 
    446, 
    447, 
    448, 
    449, 
    450, 
    451, 
    452, 
    453, 
    454, 
    455, 
    456, 
    457, 
    458, 
    459, 
    460, 
    461, 
    462, 
    463, 
    464, 
    465, 
    466, 
    467, 
    468, 
    469, 
    470, 
    471, 
    472, 
    473, 
    474, 
    475, 
    476, 
    477, 
    478, 
    479, 
    480, 
    481, 
    482, 
    483, 
    484, 
    485, 
    486, 
    487, 
    488, 
    489, 
    490, 
    491, 
    492, 
    493, 
    494, 
    495, 
    496, 
    497, 
    498, 
    499, 
    500, 
    501, 
    502, 
    503, 
    504, 
    505, 
    506, 
    507, 
    508, 
    509, 
    510, 
    511, 
    512, 
    513, 
    514, 
    515, 
    516, 
    517, 
    518, 
    519, 
    520, 
    521, 
    522, 
    523, 
    524, 
    525, 
    526, 
    527, 
    528, 
    529, 
    530, 
    531, 
    532, 
    533, 
    534, 
    535, 
    536, 
    537, 
    538, 
    539, 
    540, 
    541, 
    542, 
    543, 
    544, 
    545, 
    546, 
    547, 
    548, 
    549, 
    550, 
    551, 
    552, 
    553, 
    554, 
    555, 
    556, 
    557, 
    558, 
    559, 
    560, 
    561, 
    562, 
    563, 
    564, 
    565, 
    566, 
    567, 
    568, 
    569, 
    570, 
    571, 
    572, 
    573, 
    574, 
    575, 
    576, 
    577, 
    578, 
    579, 
    580, 
    581, 
    582, 
    583, 
    584, 
    585, 
    586, 
    587, 
    588, 
    589, 
    590, 
    591, 
    592, 
    593, 
    594, 
    595, 
    596, 
    597, 
    598, 
    599, 
    600, 
    601, 
    602, 
    603, 
    604, 
    605, 
    606, 
    607, 
    608, 
    609, 
    610, 
    611, 
    612, 
    613, 
    614, 
    615, 
    616, 
    617, 
    618, 
    619, 
    620, 
    621, 
    622, 
    623, 
    624, 
    625, 
    626, 
    627, 
    628, 
    629, 
    630, 
    631, 
    632, 
    633, 
    634, 
    635, 
    636, 
    637, 
    638, 
    639, 
    640, 
    641, 
    642, 
    643, 
    644, 
    645, 
    646, 
    647, 
    648, 
    649, 
    650, 
    651, 
    652, 
    653, 
    654, 
    655, 
    656, 
    657, 
    658, 
    659, 
    660, 
    661, 
    662, 
    663, 
    664, 
    665, 
    666, 
    667, 
    668, 
    669, 
    670, 
    671, 
    672, 
    673, 
    674, 
    675, 
    676, 
    677, 
    678, 
    679, 
    680, 
    681, 
    682, 
    683, 
    684, 
    685, 
    686, 
    687, 
    688, 
    689, 
    690, 
    691, 
    692, 
    693, 
    694, 
    695, 
    696, 
    697, 
    698, 
    699, 
    700, 
    701, 
    702, 
    703, 
    704, 
    705, 
    706, 
    707, 
    708, 
    709, 
    710, 
    711, 
    712, 
    713, 
    714, 
    715, 
    716, 
    717, 
    718, 
    719, 
    720, 
    721, 
    722, 
    723, 
    724, 
    725, 
    726, 
    727, 
    728, 
    729, 
    730, 
    731, 
    732, 
    733, 
    734, 
    735, 
    736, 
    737, 
    738, 
    739, 
    740, 
    741, 
    742, 
    743, 
    744, 
    745, 
    746, 
    747, 
    748, 
    749, 
    750, 
    751, 
    752, 
    753, 
    754, 
    755, 
    756, 
    757, 
    758, 
    759, 
    760, 
    761, 
    762, 
    763, 
    764, 
    765, 
    766, 
    767, 
    768, 
    769, 
    770, 
    771, 
    772, 
    773, 
    774, 
    775, 
    776, 
    777, 
    778, 
    779, 
    780, 
    781, 
    782, 
    783, 
    784, 
    785, 
    786, 
    787, 
    788, 
    789, 
    790, 
    791, 
    792, 
    793, 
    794, 
    795, 
    796, 
    797, 
    798, 
    799, 
    800, 
    801, 
    802, 
    803, 
    804, 
    805, 
    806, 
    807, 
    808, 
    809, 
    810, 
    811, 
    812, 
    813, 
    814, 
    815, 
    816, 
    817, 
    818, 
    819, 
    820, 
    821, 
    822, 
    823, 
    824, 
    825, 
    826, 
    827, 
    828, 
    829, 
    830, 
    831, 
    832, 
    833, 
    834, 
    835, 
    836, 
    837, 
    838, 
    839, 
    840, 
    841, 
    842, 
    843, 
    844, 
    845, 
    846, 
    847, 
    848, 
    849, 
    850, 
    851, 
    852, 
    853, 
    854, 
    855, 
    856, 
    857, 
    858, 
    859, 
    860, 
    861, 
    862, 
    863, 
    864, 
    865, 
    866, 
    867, 
    868, 
    869, 
    870, 
    871, 
    872, 
    873, 
    874, 
    875, 
    876, 
    877, 
    878, 
    879, 
    880, 
    881, 
    882, 
    883, 
    884, 
    885, 
    886, 
    887, 
    888, 
    889, 
    890, 
    891, 
    892, 
    893, 
    894, 
    895, 
    896, 
    897, 
    898, 
    899, 
    900, 
    901, 
    902, 
    903, 
    904, 
    905, 
    906, 
    907, 
    908, 
    909, 
    910, 
    911, 
    912, 
    913, 
    914, 
    915, 
    916, 
    917, 
    918, 
    919, 
    920, 
    921, 
    922, 
    923, 
    924, 
    925, 
    926, 
    927, 
    928, 
    929, 
    930, 
    931, 
    932, 
    933, 
    934, 
    935, 
    936, 
    937, 
    938, 
    939, 
    940, 
    941, 
    942, 
    943, 
    944, 
    945, 
    946, 
    947, 
    948, 
    949, 
    950, 
    951, 
    952, 
    953, 
    954, 
    955, 
    956, 
    957, 
    958, 
    959, 
    960, 
    961, 
    962, 
    963, 
    964, 
    965, 
    966, 
    967, 
    968, 
    969, 
    970, 
    971, 
    972, 
    973, 
    974, 
    975, 
    976, 
    977, 
    978, 
    979, 
    980, 
    981, 
    982, 
    983, 
    984, 
    985, 
    986, 
    987, 
    988, 
    989, 
    990, 
    991, 
    992, 
    993, 
    994, 
    995, 
    996, 
    997, 
    998, 
    999, 
    1000, 
    1001, 
    1002, 
    1003, 
    1004, 
    1005, 
    1006, 
    1007, 
    1008, 
    1009, 
    1010, 
    1011, 
    1012, 
    1013, 
    1014, 
    1015, 
    1016, 
    1017, 
    1018, 
    1019, 
    1020, 
    1021, 
    1022, 
    1023, 
    1024, 
    1025, 
    1026, 
    1027, 
    1028, 
    1029, 
    1030, 
    1031, 
    1032, 
    1033, 
    1034, 
    1035, 
    1036, 
    1037, 
    1038, 
    1039, 
    1040, 
    1041, 
    1042, 
    1043, 
    1044, 
    1045, 
    1046, 
    1047, 
    1048, 
    1049, 
    1050, 
    1051, 
    1052, 
    1053, 
    1054, 
    1055, 
    1056, 
    1057, 
    1058, 
    1059, 
    1060, 
    1061, 
    1062, 
    1063, 
    1064, 
    1065, 
    1066, 
    1067, 
    1068, 
    1069, 
    1070, 
    1071, 
    1072, 
    1073, 
    1074, 
    1075, 
    1076, 
    1077, 
    1078, 
    1079, 
    1080, 
    1081, 
    1082, 
    1083, 
    1084, 
    1085, 
    1086, 
    1087, 
    1088, 
    1089, 
    1090, 
    1091, 
    1092, 
    1093, 
    1094, 
    1095, 
    1096, 
    1097, 
    1098, 
    1099, 
    1100, 
    1101, 
    1102, 
    1103, 
    1104, 
    1105, 
    1106, 
    1107, 
    1108, 
    1109, 
    1110, 
    1111, 
    1112, 
    1113, 
    1114, 
    1115, 
    1116, 
    1117, 
    1118, 
    1119, 
    1120, 
    1121, 
    1122, 
    1123, 
    1124, 
    1125, 
    1126, 
    1127, 
    1128, 
    1129, 
    1130, 
    1131, 
    1132, 
    1133, 
    1134, 
    1135, 
    1136, 
    1137, 
    1138, 
    1139, 
    1140, 
    1141, 
    1142, 
    1143, 
    1144, 
    1145, 
    1146, 
    1147, 
    1148, 
    1149, 
    1150, 
    1151, 
    1152, 
    1153, 
    1154, 
    1155, 
    1156, 
    1157, 
    1158, 
    1159, 
    1160, 
    1161, 
    1162, 
    1163, 
    1164, 
    1165, 
    1166, 
    1167, 
    1168, 
    1169, 
    1170, 
    1171, 
    1172, 
    1173, 
    1174, 
    1175, 
    1176, 
    1177, 
    1178, 
    1179, 
    1180, 
    1181, 
    1182, 
    1183, 
    1184, 
    1185, 
    1186, 
    1187, 
    1188, 
    1189, 
    1190, 
    1191, 
    1192, 
    1193, 
    1194, 
    1195, 
    1196, 
    1197, 
    1198, 
    1199, 
    1200, 
    1201, 
    1202, 
    1203, 
    1204, 
    1205, 
    1206, 
    1207, 
    1208, 
    1209, 
    1210, 
    1211, 
    1212, 
    1213, 
    1214, 
    1215, 
    1216, 
    1217, 
    1218, 
    1219, 
    1220, 
    1221, 
    1222, 
    1223, 
    1224, 
    1225, 
    1226, 
    1227, 
    1228, 
    1229, 
    1230, 
    1231, 
    1232, 
    1233, 
    1234, 
    1235, 
    1236, 
    1237, 
    1238, 
    1239, 
    1240, 
    1241, 
    1242, 
    1243, 
    1244, 
    1245, 
    1246, 
    1247, 
    1248, 
    1249, 
    1250, 
    1251, 
    1252, 
    1253, 
    1254, 
    1255, 
    1256, 
    1257, 
    1258, 
    1259, 
    1260, 
    1261, 
    1262, 
    1263, 
    1264, 
    1265, 
    1266, 
    1267, 
    1268, 
    1269, 
    1270, 
    1271, 
    1272, 
    1273, 
    1274, 
    1275, 
    1276, 
    1277, 
    1278, 
    1279, 
    1280, 
    1281, 
    1282, 
    1283, 
    1284, 
    1285, 
    1286, 
    1287, 
    1288, 
    1289, 
    1290, 
    1291, 
    1292, 
    1293, 
    1294, 
    1295, 
    1296, 
    1297, 
    1298, 
    1299, 
    1300, 
    1301, 
    1302, 
    1303, 
    1304, 
    1305, 
    1306, 
    1307, 
    1308, 
    1309, 
    1310, 
    1311, 
    1312, 
    1313, 
    1314, 
    1315, 
    1316, 
    1317, 
    1318, 
    1319, 
    1320, 
    1321, 
    1322, 
    1323, 
    1324, 
    1325, 
    1326, 
    1327, 
    1328, 
    1329, 
    1330, 
    1331, 
    1332, 
    1333, 
    1334, 
    1335, 
    1336, 
    1337, 
    1338, 
    1339, 
    1340, 
    1341, 
    1342, 
    1343, 
    1344, 
    1345, 
    1346, 
    1347, 
    1348, 
    1349, 
    1350, 
    1351, 
    1352, 
    1353, 
    1354, 
    1355, 
    1356, 
    1357, 
    1358, 
    1359, 
    1360, 
    1361, 
    1362, 
    1363, 
    1364, 
    1365, 
    1366, 
    1367, 
    1368, 
    1369, 
    1370, 
    1371, 
    1372, 
    1373, 
    1374, 
    1375, 
    1376, 
    1377, 
    1378, 
    1379, 
    1380, 
    1381, 
    1382, 
    1383, 
    1384, 
    1385, 
    1386, 
    1387, 
    1388, 
    1389, 
    1390, 
    1391, 
    1392, 
    1393, 
    1394, 
    1395, 
    1396, 
    1397, 
    1398, 
    1399, 
    1400, 
    1401, 
    1402, 
    1403, 
    1404, 
    1405, 
    1406, 
    1407, 
    1408, 
    1409, 
    1410, 
    1411, 
    1412, 
    1413, 
    1414, 
    1415, 
    1416, 
    1417, 
    1418, 
    1419, 
    1420, 
    1421, 
    1422, 
    1423, 
    1424, 
    1425, 
    1426, 
    1427, 
    1428, 
    1429, 
    1430, 
    1431, 
    1432, 
    1433, 
    1434, 
    1435, 
    1436, 
    1437, 
    1438, 
    1439, 
    1440, 
    1441, 
    1442, 
    1443, 
    1444, 
    1445, 
    1446, 
    1447, 
    1448, 
    1449, 
    1450, 
    1451, 
    1452, 
    1453, 
    1454, 
    1455, 
    1456, 
    1457, 
    1458, 
    1459, 
    1460, 
    1461, 
    1462, 
    1463, 
    1464, 
    1465, 
    1466, 
    1467, 
    1468, 
    1469, 
    1470, 
    1471, 
    1472, 
    1473, 
    1474, 
    1475, 
    1476, 
    1477, 
    1478, 
    1479, 
    1480, 
    1481, 
    1482, 
    1483, 
    1484, 
    1485, 
    1486, 
    1487, 
    1488, 
    1489, 
    1490, 
    1491, 
    1492, 
    1493, 
    1494, 
    1495, 
    1496, 
    1497, 
    1498, 
    1499, 
    1500, 
    1501, 
    1502, 
    1503, 
    1504, 
    1505, 
    1506, 
    1507, 
    1508, 
    1509, 
    1510, 
    1511, 
    1512, 
    1513, 
    1514, 
    1515, 
    1516, 
    1517, 
    1518, 
    1519, 
    1520, 
    1521, 
    1522, 
    1523, 
    1524, 
    1525, 
    1526, 
    1527, 
    1528, 
    1529, 
    1530, 
    1531, 
    1532, 
    1533, 
    1534, 
    1535, 
    1536, 
    1537, 
    1538, 
    1539, 
    1540, 
    1541, 
    1542, 
    1543, 
    1544, 
    1545, 
    1546, 
    1547, 
    1548, 
    1549, 
    1550, 
    1551, 
    1552, 
    1553, 
    1554, 
    1555, 
    1556, 
    1557, 
    1558, 
    1559, 
    1560, 
    1561, 
    1562, 
    1563, 
    1564, 
    1565, 
    1566, 
    1567, 
    1568, 
    1569, 
    1570, 
    1571, 
    1572, 
    1573, 
    1574, 
    1575, 
    1576, 
    1577, 
    1578, 
    1579, 
    1580, 
    1581, 
    1582, 
    1583, 
    1584, 
    1585, 
    1586, 
    1587, 
    1588, 
    1589, 
    1590, 
    1591, 
    1592, 
    1593, 
    1594, 
    1595, 
    1596, 
    1597, 
    1598, 
    1599, 
    1600, 
    1601, 
    1602, 
    1603, 
    1604, 
    1605, 
    1606, 
    1607, 
    1608, 
    1609, 
    1610, 
    1611, 
    1612, 
    1613, 
    1614, 
    1615, 
    1616, 
    1617, 
    1618, 
    1619, 
    1620, 
    1621, 
    1622, 
    1623, 
    1624, 
    1625, 
    1626, 
    1627, 
    1628, 
    1629, 
    1630, 
    1631, 
    1632, 
    1633, 
    1634, 
    1635, 
    1636, 
    1637, 
    1638, 
    1639, 
    1640, 
    1641, 
    1642, 
    1643, 
    1644, 
    1645, 
    1646, 
    1647, 
    1648, 
    1649, 
    1650, 
    1651, 
    1652, 
    1653, 
    1654, 
    1655, 
    1656, 
    1657, 
    1658, 
    1659, 
    1660, 
    1661, 
    1662, 
    1663, 
    1664, 
    1665, 
    1666, 
    1667, 
    1668, 
    1669, 
    1670, 
    1671, 
    1672, 
    1673, 
    1674, 
    1675, 
    1676, 
    1677, 
    1678, 
    1679, 
    1680, 
    1681, 
    1682, 
    1683, 
    1684, 
    1685, 
    1686, 
    1687, 
    1688, 
    1689, 
    1690, 
    1691, 
    1692, 
    1693, 
    1694, 
    1695, 
    1696, 
    1697, 
    1698, 
    1699, 
    1700, 
    1701, 
    1702, 
    1703, 
    1704, 
    1705, 
    1706, 
    1707, 
    1708, 
    1709, 
    1710, 
    1711, 
    1712, 
    1713, 
    1714, 
    1715, 
    1716, 
    1717, 
    1718, 
    1719, 
    1720, 
    1721, 
    1722, 
    1723, 
    1724, 
    1725, 
    1726, 
    1727, 
    1728, 
    1729, 
    1730, 
    1731, 
    1732, 
    1733, 
    1734, 
    1735, 
    1736, 
    1737, 
    1738, 
    1739, 
    1740, 
    1741, 
    1742, 
    1743, 
    1744, 
    1745, 
    1746, 
    1747, 
    1748, 
    1749, 
    1750, 
    1751, 
    1752, 
    1753, 
    1754, 
    1755, 
    1756, 
    1757, 
    1758, 
    1759, 
    1760, 
    1761, 
    1762, 
    1763, 
    1764, 
    1765, 
    1766, 
    1767, 
    1768, 
    1769, 
    1770, 
    1771, 
    1772, 
    1773, 
    1774, 
    1775, 
    1776, 
    1777, 
    1778, 
    1779, 
    1780, 
    1781, 
    1782, 
    1783, 
    1784, 
    1785, 
    1786, 
    1787, 
    1788, 
    1789, 
    1790, 
    1791, 
    1792, 
    1793, 
    1794, 
    1795, 
    1796, 
    1797, 
    1798, 
    1799, 
    1800, 
    1801, 
    1802, 
    1803, 
    1804, 
    1805, 
    1806, 
    1807, 
    1808, 
    1809, 
    1810, 
    1811, 
    1812, 
    1813, 
    1814, 
    1815, 
    1816, 
    1817, 
    1818, 
    1819, 
    1820, 
    1821, 
    1822, 
    1823
  ], 
  "heads": [[1821, 0, 0], [1822, 0, 0]], 
  "attrs": {"mxnet_version": ["int", 10500]}
}